submission_predictor_model_java.pth (torch, 56881 bytes, 24 tensors)

concat_embedder.code_emb_module.node_type_embedding.weight f4 [100, 32]
0	0x3f4d9264	0.803015
1	0xbe74377d	-0.23849292
2	0xbec49fd7	-0.38403198
3	0xbf852989	-1.04033
4	0x3eba6858	0.36407733
5	0x3fe6d108	1.8032541
6	0xbe6bb25f	-0.23017262
7	0x3f2761ea	0.6538378
8	0xbefbeff5	-0.4920651
9	0xbecd0bd9	-0.40048102
10	0x3f9be671	1.21797
11	0x400f6b99	2.2409422
12	0xbf37bafe	-0.717697
13	0xbe820a17	-0.25398323
14	0xbd019288	-0.031633884
15	0xbe967a5c	-0.29390228
16	0xbe83e964	-0.25764
17	0xbfe2b8e0	-1.7712669
18	0xbef81685	-0.4845468
19	0xbf0921ef	-0.53567404
20	0x3f5e7ae6	0.8690628
21	0xbdc26274	-0.09491435
22	0x3eae281d	0.3401498
23	0xbef38f5a	-0.47570306
24	0xbb995b91	-0.004680105
25	0x3e962f9e	0.29333204
26	0x3c7a8e29	0.015292683
27	0xbecf59ac	-0.40498102
28	0xbf82c338	-1.0215826
29	0xbf726b1b	-0.9469468
30	0xc0168f33	-2.3524902
31	0xbf093944	-0.53603005
32	0x3f3ad7f9	0.729858
33	0x3faa9017	1.3325223
34	0xc006a39a	-2.1037354
35	0x3ca2e55e	0.019884761
36	0xbf866607	-1.0499886
37	0xbf1c8991	-0.6114741
38	0xbf8d6d71	-1.1049024
39	0xbf697a0d	-0.9120186
40	0xbf36c5e3	-0.713957
41	0x3f834f8d	1.0258652
42	0xbfdb44ec	-1.7130408
43	0xbf0c0081	-0.5468827
44	0x3f805774	1.0026689
45	0x3e1012e1	0.14069702
46	0xbf34cd2b	-0.7062556
47	0x3f0de9c3	0.5543482
48	0x3f033ced	0.5126484
49	0x3f0bab23	0.5455801
50	0x3f06612a	0.5249201
51	0x3fbad083	1.4594883
52	0xc003bb68	-2.0583134
53	0xbf9ac4be	-1.2091291
54	0x3eff59ea	0.49873286
55	0x3f147a52	0.57999146
56	0x3e84c2c2	0.25929838
57	0x3f947b4d	1.1600128
58	0x3f8abddf	1.0839194
59	0xbfb55710	-1.4167194
60	0x3f6d9b1e	0.92814815
61	0x3ccbb282	0.024865393
62	0x3eea0a70	0.45711088
63	0xbfd84e02	-1.6898806
64	0x3f46b50f	0.77620023
65	0xbf06a8e0	-0.5260143
66	0xbede2fc6	-0.43395823
67	0xbe90de7d	-0.28294745
68	0x3f37f568	0.71858835
69	0xbf2c5736	-0.67320573
70	0xbf69457c	-0.9112165
71	0x3fbb8cf4	1.465239
72	0x3fe7b95e	1.8103445
73	0x3f964cb4	1.1742158
74	0xbec13713	-0.3773733
75	0x3eed61d8	0.4636371
76	0xbf80f17d	-1.0073696
77	0xbff2d3b9	-1.8970863
78	0xbfc24161	-1.5176202
79	0x3f924124	1.1426129
80	0x3c9ac061	0.018890562
81	0xbe58ee91	-0.21184756
82	0x3ef48f98	0.47765803
83	0xbfd53ed4	-1.6659799
84	0x3f6bf20e	0.9216622
85	0x3f3e9a2c	0.74454
86	0xbf9c3c34	-1.2205873
87	0x3e2f00d2	0.17090157
88	0xbed23c3f	-0.4106159
89	0xbe98ad48	-0.29819703
90	0xbf8b35df	-1.0875815
91	0x3a3492f5	0.00068883534
92	0x401057cc	2.2553587
93	0xbe3864b9	-0.18007173
94	0x3fa244b8	1.2677221
95	0xbda77981	-0.08177472
96	0x3fdf9407	1.7467049
97	0xbfad2b6a	-1.3528874
98	0xbfe82035	-1.8134829
99	0xbf110339	-0.5664554
100	0xbf8576da	-1.0426896
101	0xbe9137c5	-0.2836286
102	0x3f2e2da0	0.6803837
103	0x3e912d5e	0.28354925
104	0x3e341699	0.17586745
105	0xbfc2cec9	-1.5219356
106	0xbfcc53f7	-1.5963124
107	0xbf442afb	-0.76628083
108	0xbf05bb40	-0.52238846
109	0xbea385fc	-0.3193816
110	0xbe8909cd	-0.2676529
111	0x3eb0b8ff	0.3451614
112	0x3d3f972d	0.04677503
113	0x3ed1c137	0.40967724
114	0xbf5be028	-0.8588891
115	0x3f477736	0.77916276
116	0x3f0d64f2	0.55232155
117	0xbf7af645	-0.9803203
118	0x3f5e75a8	0.8689828
119	0x3ead6edd	0.33873644
120	0x3fddc187	1.7324685
121	0x3f09a983	0.5377428
122	0x3f2a21a3	0.66457576
123	0x3f8602c7	1.0469598
124	0xbcac830b	-0.02105858
125	0xbf4b4269	-0.7939821
126	0xbe763931	-0.24045254
127	0xbeb6cbea	-0.3570245
128	0xbc12ec1d	-0.008967427
129	0x3fae5566	1.3619812
130	0xbf20097c	-0.6251447
131	0xbe243219	-0.16034736
132	0x3f33960f	0.70150846
133	0xbf95e1b6	-1.1709507
134	0xbf73193c	-0.9496038
135	0x3fbf13a2	1.4927866
136	0xbf1abf06	-0.6044773
137	0x3e67c097	0.22632061
138	0x3ef7cd33	0.48398742
139	0xbf9129a2	-1.134083
140	0x3ee55cb8	0.447973
141	0x3fa56e99	1.2924377
142	0xbf1942e4	-0.5986769
143	0xbf0b6df6	-0.5446466
144	0x3f744814	0.9542248
145	0x3d223f0e	0.039610915
146	0xbf8a2943	-1.0793842
147	0xbea82fee	-0.32849067
148	0xbf5374c8	-0.8260007
149	0xbf2a9f7a	-0.6664959
150	0x3ef30d51	0.47471097
151	0x3f0c9d9f	0.5492801
152	0x3fb0d82f	1.3815974
153	0xbf3c8ab6	-0.73649156
154	0xbf3a3229	-0.7273279
155	0xbee5eb49	-0.4490607
156	0x3f7c21cc	0.9848907
157	0xbe86ec60	-0.26352215
158	0x3ea2d325	0.31801715
159	0x3f84609e	1.0341985
160	0x3e4aa7fc	0.19790643
161	0x3fa34799	1.2756225
162	0xbeaedac8	-0.34151292
163	0xbf2db5fb	-0.67855805
164	0x3e287986	0.16452608
165	0xbea50b27	-0.3223507
166	0xbe92f5e9	-0.2870324
167	0xbe0a4352	-0.13502243
168	0xbfece53b	-1.8507456
169	0xbfa3dd61	-1.2801934
170	0x3f2ab3ed	0.66680795
171	0x3ee27172	0.44227177
172	0xbfc41b2a	-1.532079
173	0xbf515ad7	-0.81779236
174	0xbf811c37	-1.0086735
175	0x3f5bd5f6	0.85873353
176	0xc00d69a4	-2.2095728
177	0x3f265bd7	0.64983886
178	0x3c06c861	0.008226485
179	0x3e82237f	0.25417706
180	0x3f394434	0.72369695
181	0x3e82737b	0.2547873
182	0xbe98b71c	-0.298272
183	0x40107bf4	2.2575655
184	0xbf605568	-0.8763032
185	0x3eb770a7	0.35828134
186	0x3f96ed8c	1.1791244
187	0x3fb6a34b	1.4268583
188	0x3f8793c7	1.0591973
189	0xbe80875c	-0.2510327
190	0xbf8a7cbb	-1.0819315
191	0x3dc6e231	0.09711111
192	0x3f5e1b54	0.8676045
193	0x3f5bbb51	0.858327
194	0xc0057a19	-2.0855772
195	0xbfbf4730	-1.49436
196	0x3f9df911	1.2341634
197	0xbe8b25c6	-0.27177256
198	0x3f5f71f2	0.8728324
199	0xbfc8f849	-1.5700771
200	0x3f00876c	0.5020664
201	0x3db51e9e	0.088437304
202	0xbf60d007	-0.87817425
203	0xbf62794e	-0.88466346
204	0x3e6d9962	0.23203042
205	0x3fcbf56b	1.5934271
206	0x3eacf7ef	0.33782908
207	0xbf8245b5	-1.0177523
208	0xbf7647e6	-0.9620346
209	0x3e859462	0.2608977
210	0x3f383681	0.71958166
211	0x3ef2f773	0.47454414
212	0xbe4d83cc	-0.20069808
213	0x3f46cf9a	0.77660525
214	0x3f7fda00	0.99942017
215	0x3e90dedd	0.2829503
216	0xbf8c8e34	-1.0980897
217	0x3de12a9f	0.109944575
218	0xbd5c702f	-0.053817924
219	0x3f3be689	0.73398644
220	0x3e8d4bc6	0.27596873
221	0x3ea2b3d5	0.31777826
222	0x3e4e973a	0.20174876
223	0xbeb162ca	-0.34645683
224	0x3ee33127	0.44373438
225	0x3fbe35e0	1.4860191
226	0x40477336	3.116407
227	0x3f7304ab	0.94929
228	0xbf37dbaf	-0.71819586
229	0xbfbc8904	-1.4729314
230	0x3e512664	0.20424801
231	0x3f2e3005	0.6804202
232	0xbf03530a	-0.5129858
233	0xbf165d89	-0.58736473
234	0xbf31cd73	-0.69454116
235	0x3fa360fc	1.2763972
236	0x3f92d0c4	1.146996
237	0xbf7c0584	-0.98445916
238	0x3f1f8ef7	0.6232752
239	0x3e08c3ba	0.13355914
240	0x3f4c3697	0.797708
241	0x3f8ef721	1.1169168
242	0x3f1293dc	0.57256866
243	0xbf349759	-0.7054344
244	0xbfe889d2	-1.816706
245	0xbe3b5c01	-0.18296815
246	0x3fcfb8d5	1.6228281
247	0x3fbd5c29	1.479375
248	0x3fb912e2	1.4458888
249	0x3b8fef0b	0.00439251
250	0xbfb8c458	-1.4434919
251	0xc02d35da	-2.7064118
252	0x3fbad5d4	1.4596505
253	0xbe5c3067	-0.21502839
254	0xbdc8bb29	-0.09801323
255	0x3d81993a	0.06328054

concat_embedder.code_emb_module.convs.0.bias f4 [64]
0	0x3a1b46c2	0.00059233245
1	0x3999e67f	0.00029354167
2	0xb98fdd0d	-0.0002743978
3	0x376bd694	1.4057052e-05
4	0xb790b708	-1.7251368e-05
5	0xb9916f78	-0.00027739606
6	0xb7b3b86b	-2.142434e-05
7	0x38ea4861	0.00011171471
8	0xb9869e5b	-0.00025676456
9	0xb9d96996	-0.00041468133
10	0xb9b74025	-0.0003495227
11	0x396e1cd6	0.00022708191
12	0x39e85571	0.00044314147
13	0xb9991f19	-0.00029205604
14	0xb9a9bed2	-0.00032376364
15	0xba2e7596	-0.0006655095
16	0x39f02c16	0.00045809214
17	0xb9561445	-0.00020416181
18	0xb8039800	-3.1374395e-05
19	0x38be8e55	9.0864174e-05
20	0xba0027d6	-0.00048887485
21	0x3799bc94	1.8326835e-05
22	0x39a496bb	0.0003139282
23	0xb9a1da10	-0.00030870782
24	0xb9e19e7c	-0.00043033424
25	0x39c31e56	0.000372159
26	0x00000000	0.0
27	0xb8e6e79c	-0.00011010395
28	0xb7ae43ee	-2.0774049e-05
29	0x39333b32	0.00017092822
30	0x00000000	0.0
31	0x3a0437d6	0.00050437206
32	0xb8db8dad	-0.00010469123
33	0x3892679d	6.981122e-05
34	0xb9af9a9a	-0.00033493788
35	0xb7176de4	-9.025887e-06
36	0x3a02a7d8	0.0004984117
37	0x3a26e869	0.0006367029
38	0x39f313b7	0.0004636326
39	0xb9920f33	-0.00027858614
40	0x39b263f0	0.00034025265
41	0xba00caaf	-0.0004913015
42	0xb906e1c9	-0.00012863347
43	0xb7be14a2	-2.2659373e-05
44	0x39d2b5b6	0.00040189706
45	0xb981b924	-0.00024742738
46	0x383c4566	4.4887325e-05
47	0x393fd3c3	0.00018294067
48	0x3816d493	3.5960762e-05
49	0x39989615	0.0002910352
50	0xb9bf8267	-0.00036527516
51	0xb961c4ec	-0.00021531031
52	0xb941d937	-0.00018486833
53	0xb9a68561	-0.00031761362
54	0x384a759c	4.8270085e-05
55	0xb7a9ec8e	-2.0256524e-05
56	0xb9e09429	-0.00042834997
57	0xb94e7b70	-0.00019691675
58	0x37dfbe38	2.6672249e-05
59	0xba2ee78d	-0.0006672077
60	0x38d8397a	0.000103103885
61	0xb98c7b36	-0.0002679468
62	0xb9285bda	-0.00016055946
63	0x38491dea	4.7949994e-05

concat_embedder.code_emb_module.convs.0.lin.weight f4 [64, 32]
0	0x3d9119b2	0.07084979
1	0xbdb64786	-0.08900361
2	0xbd57dbc5	-0.052699823
3	0x3da89850	0.08232176
4	0xbd87b053	-0.06625428
5	0xbd94afc2	-0.07260086
6	0xbd2807ab	-0.041022938
7	0xbce32eb6	-0.027732234
8	0xbe4d969b	-0.20076983
9	0xbcb6da4b	-0.022320887
10	0xbdb642e2	-0.08899476
11	0x3e435cab	0.19078319
12	0x3ddb5a77	0.10710614
13	0x3e6abf03	0.22924428
14	0x3e5b7db5	0.21434672
15	0xbe26161c	-0.16219372
16	0x3e5ba43f	0.21449374
17	0xbe12e309	-0.1434442
18	0x3d13bcee	0.03606885
19	0x3be54396	0.0069965823
20	0xbad4f692	-0.00162478
21	0xbd9d3811	-0.076767094
22	0x3de1c1c8	0.11023289
23	0x3da73cff	0.08165931
24	0xbe2ab262	-0.1666961
25	0x3e167fda	0.14697209
26	0x3c57c308	0.013169058
27	0x3e15b2f4	0.14619046
28	0xbddeffe1	-0.10888649
29	0x3db9c5f1	0.090709575
30	0x3d3aad08	0.04557517
31	0x3e299758	0.1656164
32	0xbe5e8102	-0.217289
33	0x3e427aae	0.18992111
34	0x3cf2495b	0.029575994
35	0xbdc8e9b5	-0.09810201
36	0x3d45f96a	0.048333563
37	0xbded4f1e	-0.11587356
38	0x3dd43cf4	0.103631884
39	0x3dc007f5	0.09376518
40	0x3de36710	0.11103642
41	0x3d78989a	0.060692407
42	0xbd66fe20	-0.056394696
43	0xbe0ccc1e	-0.1374974
44	0x3e013549	0.12617983
45	0xbe16bfd8	-0.1472162
46	0xbe149e48	-0.14513505
47	0x3e3a4dbc	0.18193716
48	0xbda5246e	-0.08063589
49	0x3d93b988	0.07213122
50	0xbe14c443	-0.14527993
51	0x3b3f6918	0.0029206928
52	0xbe20bf5e	-0.15698001
53	0xbe4d633a	-0.20057383
54	0xbdb20a68	-0.08693391
55	0x3db6fb80	0.089346886
56	0x3e6b93d8	0.23005617
57	0xbe177041	-0.14788915
58	0xbe6733da	-0.22578374
59	0xbd94c270	-0.072636485
60	0xbe35f23e	-0.1776819
61	0x3e02a7ed	0.12759371
62	0x3e37341c	0.17890972
63	0x3db0a79d	0.0862572
64	0xbc57c092	-0.013168471
65	0xbe2009a0	-0.15628672
66	0x3da0675f	0.078322165
67	0x3de01aee	0.109426364
68	0x3e54b73d	0.20773025
69	0x3c5ff922	0.013670238
70	0xbe74b7ff	-0.23898314
71	0xbcb04e92	-0.02152184
72	0x3d8569b5	0.06514303
73	0x3d89c3b3	0.0672678
74	0x3e32aa77	0.1744784
75	0x3e2d6233	0.16931991
76	0x3d04fe0f	0.03246885
77	0x3d33f8c3	0.04393841
78	0xbe49c9ab	-0.19705836
79	0xbe09cf08	-0.13457882
80	0x3d1fed0d	0.03904443
81	0xbde56726	-0.11201315
82	0xbe408bf3	-0.18803386
83	0xbe68302a	-0.22674623
84	0xbccdd9f4	-0.025128342
85	0x3e501ace	0.20322725
86	0x3db16f49	0.08663804
87	0xbcfaca57	-0.030614061
88	0x3e75825f	0.23975514
89	0x3c9fcaf1	0.01950595
90	0x3d94202f	0.07232701
91	0xbcb665fc	-0.022265427
92	0xbe57b2c4	-0.21064287
93	0x3dea4417	0.11438768
94	0x3e789cee	0.24278614
95	0xbd2b8c79	-0.041882012
96	0x3dc12fc0	0.09432936
97	0x3de3616c	0.11102566
98	0xbe15e02d	-0.14636298
99	0xbe38229c	-0.17981952
100	0xbe192f89	-0.1495954
101	0x3dd9b036	0.10629313
102	0xbd983f72	-0.07433976
103	0xbe04a482	-0.1295338
104	0xbdd37f23	-0.10326984
105	0x3c5c342f	0.013440176
106	0x3e204936	0.15652928
107	0xbe4f69e8	-0.20255244
108	0xbdff7388	-0.12473208
109	0xbc5d5875	-0.013509859
110	0xbdb30556	-0.08741252
111	0x3e0e5400	0.13899231
112	0xbd33633c	-0.04379581
113	0xbda279e2	-0.079334036
114	0xbde5df8b	-0.11224278
115	0x3e2fa55d	0.17152925
116	0xbe27bc90	-0.16380525
117	0xbe022a06	-0.12711343
118	0x3e5e639b	0.21717684
119	0xbddb35f1	-0.10703648
120	0x3d007fb0	0.031371772
121	0x3d369af4	0.04458137
122	0xbe7a6102	-0.24451068
123	0x3e5c3ed8	0.21508348
124	0xbe7b6e1b	-0.2455372
125	0xbe119d94	-0.14220268
126	0xbe5fdbed	-0.21861239
127	0xbe1a01f7	-0.15039812
128	0x3c94b1b8	0.01815115
129	0xbda0bbd3	-0.078483246
130	0x3e3ab339	0.1823243
131	0xbd8c5bdc	-0.06853458
132	0xbdc1c2af	-0.09460961
133	0x3d5d5ef5	0.054045636
134	0xbe747d10	-0.23875833
135	0xbe2690ec	-0.16266221
136	0xbe179fed	-0.148071
137	0xbe1c87c8	-0.15286171
138	0x3d7eec6f	0.0622372
139	0x3dcf5a6b	0.10124668
140	0x3c8ce7c7	0.017200364
141	0x3d97af62	0.074064985
142	0x3d9bb461	0.07602764
143	0xbdd5a9f9	-0.1043281
144	0xbe45ff5f	-0.19335698
145	0x3cf8486d	0.030307973
146	0x3e655e6b	0.22399299
147	0x3dbca2e2	0.09210755
148	0x3d136459	0.03598437
149	0x3de54897	0.11195486
150	0xbd1c9ade	-0.03823363
151	0x3e1f98cc	0.15585631
152	0xbbffd655	-0.007807533
153	0xbe60ff8f	-0.21972488
154	0xbe1c7e37	-0.15282522
155	0xbe582a6a	-0.2110993
156	0xbe0ef02d	-0.13958807
157	0xbddc92ce	-0.10770188
158	0xbd508df7	-0.05091664
159	0x3e471b6a	0.19444051
160	0x3d25d378	0.040484875
161	0xbe2d1df7	-0.16905962
162	0xbd94a8ad	-0.07258735
163	0x3d8ddd67	0.06926995
164	0x3e467727	0.1938139
165	0xbda63782	-0.08116056
166	0xbda28989	-0.07936389
167	0x3e2a5c43	0.16636758
168	0xbc3e85ab	-0.011628549
169	0xbdf63934	-0.120226294
170	0xbe7d1442	-0.24714759
171	0x3d1be5c2	0.03806091
172	0x3dd30ecb	0.10305556
173	0xbde84dec	-0.113429874
174	0xbd1ec99e	-0.038766496
175	0x3e737d47	0.23778258
176	0x3d347ccf	0.04406434
177	0xbd8a66b2	-0.06757869
178	0x3dcc4968	0.09974939
179	0x3e460bb1	0.19340397
180	0xbd4ed84d	-0.05049925
181	0x3e33a1e6	0.17542228
182	0x3e045965	0.12924726
183	0xbe5c28c7	-0.2149993
184	0xbd6f8d0b	-0.05848412
185	0xbdb9c221	-0.0907023
186	0x3cf7204b	0.030166766
187	0x3e65c16c	0.22437066
188	0x3d88d879	0.06681914
189	0xbe380574	-0.1797083
190	0xbe491234	-0.1963585
191	0x3e7f1919	0.24911918
192	0xbe3c2b54	-0.18375903
193	0x3e4402c9	0.19141687
194	0x3e12e149	0.14343752
195	0xbe47b16e	-0.19501278
196	0x3ca6609f	0.020309744
197	0xbcc0d8ba	-0.023540843
198	0x3e7d644c	0.24745291
199	0x3e0016fb	0.12508766
200	0xbe2169c3	-0.15763001
201	0xbe37edf7	-0.1796187
202	0xbd4cadc6	-0.04997041
203	0xbcd4a706	-0.02595855
204	0x3d7cb1f1	0.061693136
205	0xbccb5312	-0.024819884
206	0xbe2a5cdd	-0.16636987
207	0x3c37c870	0.011217222
208	0xbd26c4e9	-0.040715132
209	0xbd9fb1f4	-0.07797614
210	0xbdf6f3a2	-0.12058188
211	0xbd039250	-0.032121956
212	0xbe2d50a8	-0.16925299
213	0x3e2ee5ea	0.17079893
214	0xbe180cb0	-0.1484859
215	0xbe3d8d59	-0.18510951
216	0xbd76efbb	-0.06028722
217	0xbdd7a651	-0.10529769
218	0xbdd93dee	-0.10607515
219	0xbda23cdb	-0.079217635
220	0x3e1fc0cc	0.1560089
221	0x3e2fd026	0.17169246
222	0xbe4ecb2d	-0.20194693
223	0xbe43f6d6	-0.19137129
224	0xbd1223ef	-0.0356788
225	0xbe10ea19	-0.14151801
226	0xbe65f1bb	-0.22455494
227	0xbe7c4ef0	-0.24639487
228	0x3e28cf56	0.16485342
229	0x3e3878dc	0.18014854
230	0xbe276fba	-0.16351214
231	0xbc9f1623	-0.019419735
232	0xbe772e5e	-0.24138781
233	0x3e67fa98	0.22654188
234	0x3e7423f9	0.23841847
235	0xbe74c07f	-0.23901556
236	0x3dc9aff7	0.09848016
237	0xbdb28012	-0.08715834
238	0x3e359cbc	0.1773557
239	0xbd5c5df3	-0.053800534
240	0xbe513ac8	-0.2043258
241	0xbe27d185	-0.16388519
242	0x3d13ec6a	0.036114134
243	0x3dfbb3cb	0.12290152
244	0xbe4501e3	-0.19239001
245	0xbe6878ac	-0.22702283
246	0xbe7ad71a	-0.24496117
247	0xbc88bb41	-0.016690852
248	0x3d0695f7	0.03285786
249	0x3d4cdc8c	0.050015017
250	0x3e0921dd	0.13391824
251	0x3bcd490b	0.006264811
252	0xbdf37d08	-0.11889082
253	0xbe146bd6	-0.14494261
254	0xbde889b3	-0.11354389
255	0x3ddaa507	0.10676008

concat_embedder.code_emb_module.convs.1.bias f4 [48]
0	0xb94ff391	-0.00019831794
1	0x38817cf5	6.1744744e-05
2	0xb8cd9102	-9.8021716e-05
3	0xb9118343	-0.00013877176
4	0xb8e31b22	-0.000108292574
5	0x3a1c3592	0.00059589103
6	0x390ec581	0.00013615751
7	0x37b228bc	2.1238222e-05
8	0xb9f7445e	-0.0004716245
9	0xb9965cfe	-0.00028679514
10	0x39b0438c	0.00033619662
11	0xb9dd923f	-0.00042261367
12	0x393850de	0.00017577733
13	0xb9cfd51d	-0.00039640898
14	0xb90f1307	-0.00013644631
15	0xb9eb6ad8	-0.00044902298
16	0x39c38345	0.00037291102
17	0xb906b4aa	-0.00012846538
18	0x39c4ab7b	0.00037511796
19	0xb74defc4	-1.2274777e-05
20	0x3881a02a	6.181032e-05
21	0xb987663b	-0.00025825374
22	0x3a027784	0.00049769157
23	0x39e36f25	0.00043379623
24	0xb80b75c0	-3.3249846e-05
25	0xb91f1367	-0.0001517065
26	0xb90ab8de	-0.00013229574
27	0xb958e306	-0.00020683938
28	0x39833cf0	0.0002503167
29	0xb9498171	-0.00019217074
30	0xb939699a	-0.00017682315
31	0x38b84fd2	8.7886714e-05
32	0xb91b6405	-0.00014819212
33	0xb98e14ec	-0.0002709994
34	0xb950632a	-0.00019873367
35	0xb93d99db	-0.0001808176
36	0x39337e71	0.00017117873
37	0x391a4710	0.00014713057
38	0x39ea7e1f	0.00044725926
39	0xb96c329b	-0.00022525566
40	0x39a3a490	0.0003121239
41	0x38da1e20	0.00010400661
42	0xb80f7688	-3.4204248e-05
43	0xb9f211fe	-0.00046171242
44	0x396e3157	0.00022715829
45	0xb9495133	-0.00019199103
46	0x39353a78	0.00017283286
47	0xb90f2207	-0.00013650219

concat_embedder.code_emb_module.convs.1.lin.weight f4 [48, 64]
0	0xbe25435a	-0.16138974
1	0x3df48ce9	0.11940939
2	0xbe52a5bd	-0.20571037
3	0xbcb5d766	-0.022197437
4	0x3e2a1d39	0.1661271
5	0xbc8c9e29	-0.01716526
6	0xbe4cd2f6	-0.2000235
7	0xbcef047a	-0.02917694
8	0x3e0b16b1	0.13582875
9	0xbe224069	-0.15844883
10	0xba67d836	-0.00088441686
11	0x3e6255b6	0.22103009
12	0xbe473184	-0.19452482
13	0xbdaca1ae	-0.084292755
14	0x3e41e5c5	0.18935306
15	0xbdc1ec27	-0.094688706
16	0x3debd02f	0.11514317
17	0x3d8176b3	0.06321468
18	0xbd82184a	-0.06352289
19	0x3de2c8c0	0.11073446
20	0xbd939bd3	-0.072074555
21	0x3c32870f	0.010896458
22	0xbdfce9a4	-0.12349251
23	0x3e02440e	0.12721273
24	0x3e166032	0.14685133
25	0x3e257f0c	0.16161746
26	0xbc86c57f	-0.016451595
27	0x3e619f1f	0.22033356
28	0xbdfee6bd	-0.124463536
29	0x3e2a7952	0.16647843
30	0x3d978a2d	0.07399402
31	0x3cefae15	0.029257813
32	0x3ddd0028	0.107910454
33	0xbd88f98b	-0.066882215
34	0xbe3525f5	-0.1769026
35	0x3e5374a5	0.20649965
36	0x3e2a4746	0.16628751
37	0x3d225641	0.03963304
38	0x3e481878	0.19540584
39	0x3ba64074	0.0050736014
40	0xbe5452b1	-0.2073467
41	0xbc07178f	-0.008245363
42	0x3e0cf7b9	0.13766374
43	0x3ddc0f8d	0.107451536
44	0xbe246542	-0.16054252
45	0x3e202548	0.15639222
46	0x3e1f749d	0.15571828
47	0x3db396a6	0.08768968
48	0x3dda63b7	0.1066355
49	0xbde15e2a	-0.110042885
50	0xbb14c02f	-0.0022697558
51	0xbe50ef28	-0.20403731
52	0xbdda43d9	-0.10657472
53	0x3d6024f7	0.054722752
54	0xbe44cbc6	-0.19218358
55	0xbd5b232b	-0.053500336
56	0xbe1d1d8a	-0.153433
57	0x3de61289	0.11234004
58	0xbd94becc	-0.07262954
59	0x3db37a6a	0.08763583
60	0x3e657260	0.22406912
61	0xbddca41a	-0.107734874
62	0xbe0286cd	-0.12746735
63	0xbe61de6e	-0.22057506
64	0x39af1fcf	0.000334023
65	0x3e37d092	0.17950657
66	0x3d51a19e	0.05117952
67	0xbe65b31f	-0.2243161
68	0xbdf3fdd0	-0.11913645
69	0xbde7dc95	-0.113213696
70	0xbe244848	-0.16043198
71	0xbd283698	-0.04106769
72	0x3b95cda8	0.0045716353
73	0xbcc0c4f3	-0.023531413
74	0xbdc28f10	-0.09499943
75	0xbe5a177c	-0.21298021
76	0x3e0f03a4	0.13966233
77	0xbdad3610	-0.08457577
78	0xbdf58c8c	-0.11989698
79	0x3d659c06	0.056057
80	0x3d8d2062	0.06890942
81	0xbd9aa3cc	-0.07550773
82	0xbe0a0ae2	-0.13480714
83	0xbda5513f	-0.08072137
84	0xbe0e6292	-0.13904789
85	0x3e329ca1	0.17442562
86	0x3ddd4a23	0.10805156
87	0xbe56d7a9	-0.20980705
88	0xbdbd0806	-0.09230046
89	0x3e187fee	0.14892551
90	0x3da6b8f2	0.08140744
91	0xbdd33eb0	-0.10314691
92	0x3d8e814b	0.069582544
93	0xbe536ed6	-0.2064775
94	0xbba19354	-0.004930893
95	0x3e277409	0.16352858
96	0xbd709e93	-0.05874498
97	0x3da319bf	0.07963895
98	0xbe008362	-0.12550119
99	0xbdf3ad64	-0.11898306
100	0x3d31a3bc	0.04336904
101	0xbe21627f	-0.1576023
102	0x3d66f9a2	0.056390412
103	0x3de2d03b	0.11074873
104	0xbd7f10f5	-0.06227203
105	0xbe1941a4	-0.14966446
106	0x3ceb6b95	0.028737823
107	0xbe123b34	-0.14280397
108	0xbd25ee7f	-0.04051065
109	0x3e1391bd	0.14411063
110	0x3d397a4a	0.04528264
111	0xbcc2edca	-0.023795027
112	0xbe16c883	-0.14724927
113	0xbe3a1290	-0.18171144
114	0x3ddfc47f	0.109261505
115	0xbbb15f14	-0.0054129455
116	0xbde8e7d7	-0.11372345
117	0x3dc7c45d	0.0975425
118	0xbdbf7462	-0.0934837
119	0xbd796b84	-0.06089355
120	0x3e05610f	0.13025306
121	0x3e62b0e9	0.22137798
122	0xbdfff5ae	-0.124980316
123	0x3e1baef3	0.15203457
124	0x3ca5bf91	0.020232948
125	0xbde4f225	-0.11178998
126	0xbe138431	-0.14405896
127	0xbd4a6d3f	-0.04942059
128	0xbe6b8122	-0.22998479
129	0x3e0cc56a	0.13747182
130	0x3d9b5c15	0.07585923
131	0x3e28463b	0.16433041
132	0xbdedc536	-0.116098806
133	0x3de46fa3	0.111541055
134	0x3ce278be	0.027645465
135	0x3dd7c38b	0.10535344
136	0xbe471a3a	-0.19443598
137	0x3dc398e5	0.09550647
138	0xbe0bd1ff	-0.13654326
139	0xbe3a98b1	-0.1822231
140	0xbe21e401	-0.15809633
141	0x3e11f8c8	0.14255059
142	0xbe139a89	-0.14414419
143	0x3d8af382	0.06784727
144	0x3d4f2485	0.050571937
145	0x3e50da68	0.20395815
146	0x3e2f76dd	0.17135186
147	0xbcdf6289	-0.027268665
148	0xbdd3c0e5	-0.10339526
149	0xbdd8209f	-0.10553097
150	0xbe4b531f	-0.19855927
151	0xbda5fdbb	-0.08105036
152	0x3b84456e	0.004036597
153	0xbe463573	-0.19356327
154	0xbe34f4ba	-0.17671481
155	0xbd2c0aaa	-0.042002358
156	0x3ca53c9e	0.020170506
157	0xbe20b654	-0.15694553
158	0x3e1c476a	0.15261617
159	0xbc8d2b35	-0.017232517
160	0x3d2df00d	0.04246526
161	0x3d608293	0.054812025
162	0x3d2921ee	0.041292123
163	0xbe4abba5	-0.19798143
164	0xbd651ddf	-0.05593669
165	0xbd8e1739	-0.06938023
166	0x3db65ca9	0.08904392
167	0x3d264e9a	0.040602304
168	0x3d42530d	0.047442485
169	0x3e39e83b	0.18154995
170	0x3e2951f9	0.16535176
171	0xbda2ed37	-0.079554014
172	0xbe5da725	-0.21645792
173	0xbe2e6ee9	-0.17034496
174	0xbe644913	-0.222935
175	0x3e51d115	0.20489915
176	0xbe2d5e35	-0.16930468
177	0xbc9188c3	-0.017765408
178	0x3d9bd1b9	0.07608361
179	0x3e44b0f4	0.19208127
180	0x3e651962	0.22372964
181	0x3e678bc1	0.22611906
182	0x3d390cdb	0.045178276
183	0x3dcce66c	0.10004887
184	0x3e00068f	0.12502502
185	0x3d270fcc	0.04078655
186	0x3e32656a	0.17421499
187	0xbcc5c47a	-0.024141539
188	0x3e31060b	0.17287461
189	0x3e124672	0.14284685
190	0xbe18c647	-0.14919387
191	0x3db2fc45	0.08739523
192	0xbd91cbd7	-0.071189575
193	0x3e04ed20	0.12981081
194	0x3e08bc62	0.13353112
195	0x3e0b98e2	0.13632539
196	0xbd966964	-0.073443204
197	0xbdb4c203	-0.08826067
198	0x3babe77c	0.005246101
199	0x3e318db3	0.1733921
200	0x3df8704f	0.12130796
201	0x3e56eea8	0.20989478
202	0xbe2d57fa	-0.16928092
203	0x3dcc1279	0.09964461
204	0x3d5ecdda	0.054395534
205	0x3e549acc	0.20762175
206	0xbd5af9b2	-0.053460784
207	0xbc9fc4ec	-0.01950308
208	0x3d3a9c44	0.045559183
209	0xbd4a7280	-0.049425602
210	0xbe1f81ba	-0.1557683
211	0x3e08f0e4	0.13373142
212	0x3e4f7d80	0.20262718
213	0x3e64765f	0.2231078
214	0xbc8fe202	-0.017563824
215	0x3d512ec8	0.051070005
216	0x3d8922f8	0.06696123
217	0xbd653c72	-0.05596585
218	0x3da79e58	0.081844985
219	0xbd0e2be5	-0.03470983
220	0xbd0d4104	-0.03448583
221	0xbbfa713d	-0.0076428936
222	0x3dc31d32	0.09527053
223	0x3dc74667	0.09730225
224	0x3dbaf5ff	0.09128951
225	0x3c493f3e	0.0122831445
226	0xbd17b310	-0.037036
227	0xbe0643ca	-0.13111797
228	0x3dd8d2d6	0.10587089
229	0xbda1b0e0	-0.07895064
230	0x3d16f773	0.03685708
231	0x3e591c97	0.21202312
232	0xbe607d7e	-0.21922871
233	0xbcf828aa	-0.030292828
234	0xbe235bad	-0.1595294
235	0xbcf96085	-0.030441532
236	0x3df1f409	0.11814124
237	0xbd5d0f69	-0.053969774
238	0xbe266427	-0.16249143
239	0xbd0d6403	-0.034519207
240	0xbd4bb811	-0.049736086
241	0x3e5e59b7	0.21713911
242	0xbe51fe3e	-0.20507142
243	0xbd8c441c	-0.06848928
244	0xbe341894	-0.17587501
245	0x3e694a3e	0.22782227
246	0xbe11ede7	-0.14250909
247	0xbdaf16a2	-0.08549239
248	0xbe15c436	-0.1462563
249	0x3de90e4f	0.11379682
250	0x3dbcf48e	0.092263326
251	0x3e0113a2	0.12605146
252	0x3d17c801	0.037055973
253	0x3dcb9287	0.09940057
254	0xbe26f884	-0.16305739
255	0x3d8d3b99	0.06896133

concat_embedder.code_emb.node_type_embedding.weight f4 [100, 32]
0	0x3f4d9264	0.803015
1	0xbe74377d	-0.23849292
2	0xbec49fd7	-0.38403198
3	0xbf852989	-1.04033
4	0x3eba6858	0.36407733
5	0x3fe6d108	1.8032541
6	0xbe6bb25f	-0.23017262
7	0x3f2761ea	0.6538378
8	0xbefbeff5	-0.4920651
9	0xbecd0bd9	-0.40048102
10	0x3f9be671	1.21797
11	0x400f6b99	2.2409422
12	0xbf37bafe	-0.717697
13	0xbe820a17	-0.25398323
14	0xbd019288	-0.031633884
15	0xbe967a5c	-0.29390228
16	0xbe83e964	-0.25764
17	0xbfe2b8e0	-1.7712669
18	0xbef81685	-0.4845468
19	0xbf0921ef	-0.53567404
20	0x3f5e7ae6	0.8690628
21	0xbdc26274	-0.09491435
22	0x3eae281d	0.3401498
23	0xbef38f5a	-0.47570306
24	0xbb995b91	-0.004680105
25	0x3e962f9e	0.29333204
26	0x3c7a8e29	0.015292683
27	0xbecf59ac	-0.40498102
28	0xbf82c338	-1.0215826
29	0xbf726b1b	-0.9469468
30	0xc0168f33	-2.3524902
31	0xbf093944	-0.53603005
32	0x3f3ad7f9	0.729858
33	0x3faa9017	1.3325223
34	0xc006a39a	-2.1037354
35	0x3ca2e55e	0.019884761
36	0xbf866607	-1.0499886
37	0xbf1c8991	-0.6114741
38	0xbf8d6d71	-1.1049024
39	0xbf697a0d	-0.9120186
40	0xbf36c5e3	-0.713957
41	0x3f834f8d	1.0258652
42	0xbfdb44ec	-1.7130408
43	0xbf0c0081	-0.5468827
44	0x3f805774	1.0026689
45	0x3e1012e1	0.14069702
46	0xbf34cd2b	-0.7062556
47	0x3f0de9c3	0.5543482
48	0x3f033ced	0.5126484
49	0x3f0bab23	0.5455801
50	0x3f06612a	0.5249201
51	0x3fbad083	1.4594883
52	0xc003bb68	-2.0583134
53	0xbf9ac4be	-1.2091291
54	0x3eff59ea	0.49873286
55	0x3f147a52	0.57999146
56	0x3e84c2c2	0.25929838
57	0x3f947b4d	1.1600128
58	0x3f8abddf	1.0839194
59	0xbfb55710	-1.4167194
60	0x3f6d9b1e	0.92814815
61	0x3ccbb282	0.024865393
62	0x3eea0a70	0.45711088
63	0xbfd84e02	-1.6898806
64	0x3f46b50f	0.77620023
65	0xbf06a8e0	-0.5260143
66	0xbede2fc6	-0.43395823
67	0xbe90de7d	-0.28294745
68	0x3f37f568	0.71858835
69	0xbf2c5736	-0.67320573
70	0xbf69457c	-0.9112165
71	0x3fbb8cf4	1.465239
72	0x3fe7b95e	1.8103445
73	0x3f964cb4	1.1742158
74	0xbec13713	-0.3773733
75	0x3eed61d8	0.4636371
76	0xbf80f17d	-1.0073696
77	0xbff2d3b9	-1.8970863
78	0xbfc24161	-1.5176202
79	0x3f924124	1.1426129
80	0x3c9ac061	0.018890562
81	0xbe58ee91	-0.21184756
82	0x3ef48f98	0.47765803
83	0xbfd53ed4	-1.6659799
84	0x3f6bf20e	0.9216622
85	0x3f3e9a2c	0.74454
86	0xbf9c3c34	-1.2205873
87	0x3e2f00d2	0.17090157
88	0xbed23c3f	-0.4106159
89	0xbe98ad48	-0.29819703
90	0xbf8b35df	-1.0875815
91	0x3a3492f5	0.00068883534
92	0x401057cc	2.2553587
93	0xbe3864b9	-0.18007173
94	0x3fa244b8	1.2677221
95	0xbda77981	-0.08177472
96	0x3fdf9407	1.7467049
97	0xbfad2b6a	-1.3528874
98	0xbfe82035	-1.8134829
99	0xbf110339	-0.5664554
100	0xbf8576da	-1.0426896
101	0xbe9137c5	-0.2836286
102	0x3f2e2da0	0.6803837
103	0x3e912d5e	0.28354925
104	0x3e341699	0.17586745
105	0xbfc2cec9	-1.5219356
106	0xbfcc53f7	-1.5963124
107	0xbf442afb	-0.76628083
108	0xbf05bb40	-0.52238846
109	0xbea385fc	-0.3193816
110	0xbe8909cd	-0.2676529
111	0x3eb0b8ff	0.3451614
112	0x3d3f972d	0.04677503
113	0x3ed1c137	0.40967724
114	0xbf5be028	-0.8588891
115	0x3f477736	0.77916276
116	0x3f0d64f2	0.55232155
117	0xbf7af645	-0.9803203
118	0x3f5e75a8	0.8689828
119	0x3ead6edd	0.33873644
120	0x3fddc187	1.7324685
121	0x3f09a983	0.5377428
122	0x3f2a21a3	0.66457576
123	0x3f8602c7	1.0469598
124	0xbcac830b	-0.02105858
125	0xbf4b4269	-0.7939821
126	0xbe763931	-0.24045254
127	0xbeb6cbea	-0.3570245
128	0xbc12ec1d	-0.008967427
129	0x3fae5566	1.3619812
130	0xbf20097c	-0.6251447
131	0xbe243219	-0.16034736
132	0x3f33960f	0.70150846
133	0xbf95e1b6	-1.1709507
134	0xbf73193c	-0.9496038
135	0x3fbf13a2	1.4927866
136	0xbf1abf06	-0.6044773
137	0x3e67c097	0.22632061
138	0x3ef7cd33	0.48398742
139	0xbf9129a2	-1.134083
140	0x3ee55cb8	0.447973
141	0x3fa56e99	1.2924377
142	0xbf1942e4	-0.5986769
143	0xbf0b6df6	-0.5446466
144	0x3f744814	0.9542248
145	0x3d223f0e	0.039610915
146	0xbf8a2943	-1.0793842
147	0xbea82fee	-0.32849067
148	0xbf5374c8	-0.8260007
149	0xbf2a9f7a	-0.6664959
150	0x3ef30d51	0.47471097
151	0x3f0c9d9f	0.5492801
152	0x3fb0d82f	1.3815974
153	0xbf3c8ab6	-0.73649156
154	0xbf3a3229	-0.7273279
155	0xbee5eb49	-0.4490607
156	0x3f7c21cc	0.9848907
157	0xbe86ec60	-0.26352215
158	0x3ea2d325	0.31801715
159	0x3f84609e	1.0341985
160	0x3e4aa7fc	0.19790643
161	0x3fa34799	1.2756225
162	0xbeaedac8	-0.34151292
163	0xbf2db5fb	-0.67855805
164	0x3e287986	0.16452608
165	0xbea50b27	-0.3223507
166	0xbe92f5e9	-0.2870324
167	0xbe0a4352	-0.13502243
168	0xbfece53b	-1.8507456
169	0xbfa3dd61	-1.2801934
170	0x3f2ab3ed	0.66680795
171	0x3ee27172	0.44227177
172	0xbfc41b2a	-1.532079
173	0xbf515ad7	-0.81779236
174	0xbf811c37	-1.0086735
175	0x3f5bd5f6	0.85873353
176	0xc00d69a4	-2.2095728
177	0x3f265bd7	0.64983886
178	0x3c06c861	0.008226485
179	0x3e82237f	0.25417706
180	0x3f394434	0.72369695
181	0x3e82737b	0.2547873
182	0xbe98b71c	-0.298272
183	0x40107bf4	2.2575655
184	0xbf605568	-0.8763032
185	0x3eb770a7	0.35828134
186	0x3f96ed8c	1.1791244
187	0x3fb6a34b	1.4268583
188	0x3f8793c7	1.0591973
189	0xbe80875c	-0.2510327
190	0xbf8a7cbb	-1.0819315
191	0x3dc6e231	0.09711111
192	0x3f5e1b54	0.8676045
193	0x3f5bbb51	0.858327
194	0xc0057a19	-2.0855772
195	0xbfbf4730	-1.49436
196	0x3f9df911	1.2341634
197	0xbe8b25c6	-0.27177256
198	0x3f5f71f2	0.8728324
199	0xbfc8f849	-1.5700771
200	0x3f00876c	0.5020664
201	0x3db51e9e	0.088437304
202	0xbf60d007	-0.87817425
203	0xbf62794e	-0.88466346
204	0x3e6d9962	0.23203042
205	0x3fcbf56b	1.5934271
206	0x3eacf7ef	0.33782908
207	0xbf8245b5	-1.0177523
208	0xbf7647e6	-0.9620346
209	0x3e859462	0.2608977
210	0x3f383681	0.71958166
211	0x3ef2f773	0.47454414
212	0xbe4d83cc	-0.20069808
213	0x3f46cf9a	0.77660525
214	0x3f7fda00	0.99942017
215	0x3e90dedd	0.2829503
216	0xbf8c8e34	-1.0980897
217	0x3de12a9f	0.109944575
218	0xbd5c702f	-0.053817924
219	0x3f3be689	0.73398644
220	0x3e8d4bc6	0.27596873
221	0x3ea2b3d5	0.31777826
222	0x3e4e973a	0.20174876
223	0xbeb162ca	-0.34645683
224	0x3ee33127	0.44373438
225	0x3fbe35e0	1.4860191
226	0x40477336	3.116407
227	0x3f7304ab	0.94929
228	0xbf37dbaf	-0.71819586
229	0xbfbc8904	-1.4729314
230	0x3e512664	0.20424801
231	0x3f2e3005	0.6804202
232	0xbf03530a	-0.5129858
233	0xbf165d89	-0.58736473
234	0xbf31cd73	-0.69454116
235	0x3fa360fc	1.2763972
236	0x3f92d0c4	1.146996
237	0xbf7c0584	-0.98445916
238	0x3f1f8ef7	0.6232752
239	0x3e08c3ba	0.13355914
240	0x3f4c3697	0.797708
241	0x3f8ef721	1.1169168
242	0x3f1293dc	0.57256866
243	0xbf349759	-0.7054344
244	0xbfe889d2	-1.816706
245	0xbe3b5c01	-0.18296815
246	0x3fcfb8d5	1.6228281
247	0x3fbd5c29	1.479375
248	0x3fb912e2	1.4458888
249	0x3b8fef0b	0.00439251
250	0xbfb8c458	-1.4434919
251	0xc02d35da	-2.7064118
252	0x3fbad5d4	1.4596505
253	0xbe5c3067	-0.21502839
254	0xbdc8bb29	-0.09801323
255	0x3d81993a	0.06328054

concat_embedder.code_emb.convs.0.bias f4 [64]
0	0x3a1b46c2	0.00059233245
1	0x3999e67f	0.00029354167
2	0xb98fdd0d	-0.0002743978
3	0x376bd694	1.4057052e-05
4	0xb790b708	-1.7251368e-05
5	0xb9916f78	-0.00027739606
6	0xb7b3b86b	-2.142434e-05
7	0x38ea4861	0.00011171471
8	0xb9869e5b	-0.00025676456
9	0xb9d96996	-0.00041468133
10	0xb9b74025	-0.0003495227
11	0x396e1cd6	0.00022708191
12	0x39e85571	0.00044314147
13	0xb9991f19	-0.00029205604
14	0xb9a9bed2	-0.00032376364
15	0xba2e7596	-0.0006655095
16	0x39f02c16	0.00045809214
17	0xb9561445	-0.00020416181
18	0xb8039800	-3.1374395e-05
19	0x38be8e55	9.0864174e-05
20	0xba0027d6	-0.00048887485
21	0x3799bc94	1.8326835e-05
22	0x39a496bb	0.0003139282
23	0xb9a1da10	-0.00030870782
24	0xb9e19e7c	-0.00043033424
25	0x39c31e56	0.000372159
26	0x00000000	0.0
27	0xb8e6e79c	-0.00011010395
28	0xb7ae43ee	-2.0774049e-05
29	0x39333b32	0.00017092822
30	0x00000000	0.0
31	0x3a0437d6	0.00050437206
32	0xb8db8dad	-0.00010469123
33	0x3892679d	6.981122e-05
34	0xb9af9a9a	-0.00033493788
35	0xb7176de4	-9.025887e-06
36	0x3a02a7d8	0.0004984117
37	0x3a26e869	0.0006367029
38	0x39f313b7	0.0004636326
39	0xb9920f33	-0.00027858614
40	0x39b263f0	0.00034025265
41	0xba00caaf	-0.0004913015
42	0xb906e1c9	-0.00012863347
43	0xb7be14a2	-2.2659373e-05
44	0x39d2b5b6	0.00040189706
45	0xb981b924	-0.00024742738
46	0x383c4566	4.4887325e-05
47	0x393fd3c3	0.00018294067
48	0x3816d493	3.5960762e-05
49	0x39989615	0.0002910352
50	0xb9bf8267	-0.00036527516
51	0xb961c4ec	-0.00021531031
52	0xb941d937	-0.00018486833
53	0xb9a68561	-0.00031761362
54	0x384a759c	4.8270085e-05
55	0xb7a9ec8e	-2.0256524e-05
56	0xb9e09429	-0.00042834997
57	0xb94e7b70	-0.00019691675
58	0x37dfbe38	2.6672249e-05
59	0xba2ee78d	-0.0006672077
60	0x38d8397a	0.000103103885
61	0xb98c7b36	-0.0002679468
62	0xb9285bda	-0.00016055946
63	0x38491dea	4.7949994e-05

concat_embedder.code_emb.convs.0.lin.weight f4 [64, 32]
0	0x3d9119b2	0.07084979
1	0xbdb64786	-0.08900361
2	0xbd57dbc5	-0.052699823
3	0x3da89850	0.08232176
4	0xbd87b053	-0.06625428
5	0xbd94afc2	-0.07260086
6	0xbd2807ab	-0.041022938
7	0xbce32eb6	-0.027732234
8	0xbe4d969b	-0.20076983
9	0xbcb6da4b	-0.022320887
10	0xbdb642e2	-0.08899476
11	0x3e435cab	0.19078319
12	0x3ddb5a77	0.10710614
13	0x3e6abf03	0.22924428
14	0x3e5b7db5	0.21434672
15	0xbe26161c	-0.16219372
16	0x3e5ba43f	0.21449374
17	0xbe12e309	-0.1434442
18	0x3d13bcee	0.03606885
19	0x3be54396	0.0069965823
20	0xbad4f692	-0.00162478
21	0xbd9d3811	-0.076767094
22	0x3de1c1c8	0.11023289
23	0x3da73cff	0.08165931
24	0xbe2ab262	-0.1666961
25	0x3e167fda	0.14697209
26	0x3c57c308	0.013169058
27	0x3e15b2f4	0.14619046
28	0xbddeffe1	-0.10888649
29	0x3db9c5f1	0.090709575
30	0x3d3aad08	0.04557517
31	0x3e299758	0.1656164
32	0xbe5e8102	-0.217289
33	0x3e427aae	0.18992111
34	0x3cf2495b	0.029575994
35	0xbdc8e9b5	-0.09810201
36	0x3d45f96a	0.048333563
37	0xbded4f1e	-0.11587356
38	0x3dd43cf4	0.103631884
39	0x3dc007f5	0.09376518
40	0x3de36710	0.11103642
41	0x3d78989a	0.060692407
42	0xbd66fe20	-0.056394696
43	0xbe0ccc1e	-0.1374974
44	0x3e013549	0.12617983
45	0xbe16bfd8	-0.1472162
46	0xbe149e48	-0.14513505
47	0x3e3a4dbc	0.18193716
48	0xbda5246e	-0.08063589
49	0x3d93b988	0.07213122
50	0xbe14c443	-0.14527993
51	0x3b3f6918	0.0029206928
52	0xbe20bf5e	-0.15698001
53	0xbe4d633a	-0.20057383
54	0xbdb20a68	-0.08693391
55	0x3db6fb80	0.089346886
56	0x3e6b93d8	0.23005617
57	0xbe177041	-0.14788915
58	0xbe6733da	-0.22578374
59	0xbd94c270	-0.072636485
60	0xbe35f23e	-0.1776819
61	0x3e02a7ed	0.12759371
62	0x3e37341c	0.17890972
63	0x3db0a79d	0.0862572
64	0xbc57c092	-0.013168471
65	0xbe2009a0	-0.15628672
66	0x3da0675f	0.078322165
67	0x3de01aee	0.109426364
68	0x3e54b73d	0.20773025
69	0x3c5ff922	0.013670238
70	0xbe74b7ff	-0.23898314
71	0xbcb04e92	-0.02152184
72	0x3d8569b5	0.06514303
73	0x3d89c3b3	0.0672678
74	0x3e32aa77	0.1744784
75	0x3e2d6233	0.16931991
76	0x3d04fe0f	0.03246885
77	0x3d33f8c3	0.04393841
78	0xbe49c9ab	-0.19705836
79	0xbe09cf08	-0.13457882
80	0x3d1fed0d	0.03904443
81	0xbde56726	-0.11201315
82	0xbe408bf3	-0.18803386
83	0xbe68302a	-0.22674623
84	0xbccdd9f4	-0.025128342
85	0x3e501ace	0.20322725
86	0x3db16f49	0.08663804
87	0xbcfaca57	-0.030614061
88	0x3e75825f	0.23975514
89	0x3c9fcaf1	0.01950595
90	0x3d94202f	0.07232701
91	0xbcb665fc	-0.022265427
92	0xbe57b2c4	-0.21064287
93	0x3dea4417	0.11438768
94	0x3e789cee	0.24278614
95	0xbd2b8c79	-0.041882012
96	0x3dc12fc0	0.09432936
97	0x3de3616c	0.11102566
98	0xbe15e02d	-0.14636298
99	0xbe38229c	-0.17981952
100	0xbe192f89	-0.1495954
101	0x3dd9b036	0.10629313
102	0xbd983f72	-0.07433976
103	0xbe04a482	-0.1295338
104	0xbdd37f23	-0.10326984
105	0x3c5c342f	0.013440176
106	0x3e204936	0.15652928
107	0xbe4f69e8	-0.20255244
108	0xbdff7388	-0.12473208
109	0xbc5d5875	-0.013509859
110	0xbdb30556	-0.08741252
111	0x3e0e5400	0.13899231
112	0xbd33633c	-0.04379581
113	0xbda279e2	-0.079334036
114	0xbde5df8b	-0.11224278
115	0x3e2fa55d	0.17152925
116	0xbe27bc90	-0.16380525
117	0xbe022a06	-0.12711343
118	0x3e5e639b	0.21717684
119	0xbddb35f1	-0.10703648
120	0x3d007fb0	0.031371772
121	0x3d369af4	0.04458137
122	0xbe7a6102	-0.24451068
123	0x3e5c3ed8	0.21508348
124	0xbe7b6e1b	-0.2455372
125	0xbe119d94	-0.14220268
126	0xbe5fdbed	-0.21861239
127	0xbe1a01f7	-0.15039812
128	0x3c94b1b8	0.01815115
129	0xbda0bbd3	-0.078483246
130	0x3e3ab339	0.1823243
131	0xbd8c5bdc	-0.06853458
132	0xbdc1c2af	-0.09460961
133	0x3d5d5ef5	0.054045636
134	0xbe747d10	-0.23875833
135	0xbe2690ec	-0.16266221
136	0xbe179fed	-0.148071
137	0xbe1c87c8	-0.15286171
138	0x3d7eec6f	0.0622372
139	0x3dcf5a6b	0.10124668
140	0x3c8ce7c7	0.017200364
141	0x3d97af62	0.074064985
142	0x3d9bb461	0.07602764
143	0xbdd5a9f9	-0.1043281
144	0xbe45ff5f	-0.19335698
145	0x3cf8486d	0.030307973
146	0x3e655e6b	0.22399299
147	0x3dbca2e2	0.09210755
148	0x3d136459	0.03598437
149	0x3de54897	0.11195486
150	0xbd1c9ade	-0.03823363
151	0x3e1f98cc	0.15585631
152	0xbbffd655	-0.007807533
153	0xbe60ff8f	-0.21972488
154	0xbe1c7e37	-0.15282522
155	0xbe582a6a	-0.2110993
156	0xbe0ef02d	-0.13958807
157	0xbddc92ce	-0.10770188
158	0xbd508df7	-0.05091664
159	0x3e471b6a	0.19444051
160	0x3d25d378	0.040484875
161	0xbe2d1df7	-0.16905962
162	0xbd94a8ad	-0.07258735
163	0x3d8ddd67	0.06926995
164	0x3e467727	0.1938139
165	0xbda63782	-0.08116056
166	0xbda28989	-0.07936389
167	0x3e2a5c43	0.16636758
168	0xbc3e85ab	-0.011628549
169	0xbdf63934	-0.120226294
170	0xbe7d1442	-0.24714759
171	0x3d1be5c2	0.03806091
172	0x3dd30ecb	0.10305556
173	0xbde84dec	-0.113429874
174	0xbd1ec99e	-0.038766496
175	0x3e737d47	0.23778258
176	0x3d347ccf	0.04406434
177	0xbd8a66b2	-0.06757869
178	0x3dcc4968	0.09974939
179	0x3e460bb1	0.19340397
180	0xbd4ed84d	-0.05049925
181	0x3e33a1e6	0.17542228
182	0x3e045965	0.12924726
183	0xbe5c28c7	-0.2149993
184	0xbd6f8d0b	-0.05848412
185	0xbdb9c221	-0.0907023
186	0x3cf7204b	0.030166766
187	0x3e65c16c	0.22437066
188	0x3d88d879	0.06681914
189	0xbe380574	-0.1797083
190	0xbe491234	-0.1963585
191	0x3e7f1919	0.24911918
192	0xbe3c2b54	-0.18375903
193	0x3e4402c9	0.19141687
194	0x3e12e149	0.14343752
195	0xbe47b16e	-0.19501278
196	0x3ca6609f	0.020309744
197	0xbcc0d8ba	-0.023540843
198	0x3e7d644c	0.24745291
199	0x3e0016fb	0.12508766
200	0xbe2169c3	-0.15763001
201	0xbe37edf7	-0.1796187
202	0xbd4cadc6	-0.04997041
203	0xbcd4a706	-0.02595855
204	0x3d7cb1f1	0.061693136
205	0xbccb5312	-0.024819884
206	0xbe2a5cdd	-0.16636987
207	0x3c37c870	0.011217222
208	0xbd26c4e9	-0.040715132
209	0xbd9fb1f4	-0.07797614
210	0xbdf6f3a2	-0.12058188
211	0xbd039250	-0.032121956
212	0xbe2d50a8	-0.16925299
213	0x3e2ee5ea	0.17079893
214	0xbe180cb0	-0.1484859
215	0xbe3d8d59	-0.18510951
216	0xbd76efbb	-0.06028722
217	0xbdd7a651	-0.10529769
218	0xbdd93dee	-0.10607515
219	0xbda23cdb	-0.079217635
220	0x3e1fc0cc	0.1560089
221	0x3e2fd026	0.17169246
222	0xbe4ecb2d	-0.20194693
223	0xbe43f6d6	-0.19137129
224	0xbd1223ef	-0.0356788
225	0xbe10ea19	-0.14151801
226	0xbe65f1bb	-0.22455494
227	0xbe7c4ef0	-0.24639487
228	0x3e28cf56	0.16485342
229	0x3e3878dc	0.18014854
230	0xbe276fba	-0.16351214
231	0xbc9f1623	-0.019419735
232	0xbe772e5e	-0.24138781
233	0x3e67fa98	0.22654188
234	0x3e7423f9	0.23841847
235	0xbe74c07f	-0.23901556
236	0x3dc9aff7	0.09848016
237	0xbdb28012	-0.08715834
238	0x3e359cbc	0.1773557
239	0xbd5c5df3	-0.053800534
240	0xbe513ac8	-0.2043258
241	0xbe27d185	-0.16388519
242	0x3d13ec6a	0.036114134
243	0x3dfbb3cb	0.12290152
244	0xbe4501e3	-0.19239001
245	0xbe6878ac	-0.22702283
246	0xbe7ad71a	-0.24496117
247	0xbc88bb41	-0.016690852
248	0x3d0695f7	0.03285786
249	0x3d4cdc8c	0.050015017
250	0x3e0921dd	0.13391824
251	0x3bcd490b	0.006264811
252	0xbdf37d08	-0.11889082
253	0xbe146bd6	-0.14494261
254	0xbde889b3	-0.11354389
255	0x3ddaa507	0.10676008

concat_embedder.code_emb.convs.1.bias f4 [48]
0	0xb94ff391	-0.00019831794
1	0x38817cf5	6.1744744e-05
2	0xb8cd9102	-9.8021716e-05
3	0xb9118343	-0.00013877176
4	0xb8e31b22	-0.000108292574
5	0x3a1c3592	0.00059589103
6	0x390ec581	0.00013615751
7	0x37b228bc	2.1238222e-05
8	0xb9f7445e	-0.0004716245
9	0xb9965cfe	-0.00028679514
10	0x39b0438c	0.00033619662
11	0xb9dd923f	-0.00042261367
12	0x393850de	0.00017577733
13	0xb9cfd51d	-0.00039640898
14	0xb90f1307	-0.00013644631
15	0xb9eb6ad8	-0.00044902298
16	0x39c38345	0.00037291102
17	0xb906b4aa	-0.00012846538
18	0x39c4ab7b	0.00037511796
19	0xb74defc4	-1.2274777e-05
20	0x3881a02a	6.181032e-05
21	0xb987663b	-0.00025825374
22	0x3a027784	0.00049769157
23	0x39e36f25	0.00043379623
24	0xb80b75c0	-3.3249846e-05
25	0xb91f1367	-0.0001517065
26	0xb90ab8de	-0.00013229574
27	0xb958e306	-0.00020683938
28	0x39833cf0	0.0002503167
29	0xb9498171	-0.00019217074
30	0xb939699a	-0.00017682315
31	0x38b84fd2	8.7886714e-05
32	0xb91b6405	-0.00014819212
33	0xb98e14ec	-0.0002709994
34	0xb950632a	-0.00019873367
35	0xb93d99db	-0.0001808176
36	0x39337e71	0.00017117873
37	0x391a4710	0.00014713057
38	0x39ea7e1f	0.00044725926
39	0xb96c329b	-0.00022525566
40	0x39a3a490	0.0003121239
41	0x38da1e20	0.00010400661
42	0xb80f7688	-3.4204248e-05
43	0xb9f211fe	-0.00046171242
44	0x396e3157	0.00022715829
45	0xb9495133	-0.00019199103
46	0x39353a78	0.00017283286
47	0xb90f2207	-0.00013650219

concat_embedder.code_emb.convs.1.lin.weight f4 [48, 64]
0	0xbe25435a	-0.16138974
1	0x3df48ce9	0.11940939
2	0xbe52a5bd	-0.20571037
3	0xbcb5d766	-0.022197437
4	0x3e2a1d39	0.1661271
5	0xbc8c9e29	-0.01716526
6	0xbe4cd2f6	-0.2000235
7	0xbcef047a	-0.02917694
8	0x3e0b16b1	0.13582875
9	0xbe224069	-0.15844883
10	0xba67d836	-0.00088441686
11	0x3e6255b6	0.22103009
12	0xbe473184	-0.19452482
13	0xbdaca1ae	-0.084292755
14	0x3e41e5c5	0.18935306
15	0xbdc1ec27	-0.094688706
16	0x3debd02f	0.11514317
17	0x3d8176b3	0.06321468
18	0xbd82184a	-0.06352289
19	0x3de2c8c0	0.11073446
20	0xbd939bd3	-0.072074555
21	0x3c32870f	0.010896458
22	0xbdfce9a4	-0.12349251
23	0x3e02440e	0.12721273
24	0x3e166032	0.14685133
25	0x3e257f0c	0.16161746
26	0xbc86c57f	-0.016451595
27	0x3e619f1f	0.22033356
28	0xbdfee6bd	-0.124463536
29	0x3e2a7952	0.16647843
30	0x3d978a2d	0.07399402
31	0x3cefae15	0.029257813
32	0x3ddd0028	0.107910454
33	0xbd88f98b	-0.066882215
34	0xbe3525f5	-0.1769026
35	0x3e5374a5	0.20649965
36	0x3e2a4746	0.16628751
37	0x3d225641	0.03963304
38	0x3e481878	0.19540584
39	0x3ba64074	0.0050736014
40	0xbe5452b1	-0.2073467
41	0xbc07178f	-0.008245363
42	0x3e0cf7b9	0.13766374
43	0x3ddc0f8d	0.107451536
44	0xbe246542	-0.16054252
45	0x3e202548	0.15639222
46	0x3e1f749d	0.15571828
47	0x3db396a6	0.08768968
48	0x3dda63b7	0.1066355
49	0xbde15e2a	-0.110042885
50	0xbb14c02f	-0.0022697558
51	0xbe50ef28	-0.20403731
52	0xbdda43d9	-0.10657472
53	0x3d6024f7	0.054722752
54	0xbe44cbc6	-0.19218358
55	0xbd5b232b	-0.053500336
56	0xbe1d1d8a	-0.153433
57	0x3de61289	0.11234004
58	0xbd94becc	-0.07262954
59	0x3db37a6a	0.08763583
60	0x3e657260	0.22406912
61	0xbddca41a	-0.107734874
62	0xbe0286cd	-0.12746735
63	0xbe61de6e	-0.22057506
64	0x39af1fcf	0.000334023
65	0x3e37d092	0.17950657
66	0x3d51a19e	0.05117952
67	0xbe65b31f	-0.2243161
68	0xbdf3fdd0	-0.11913645
69	0xbde7dc95	-0.113213696
70	0xbe244848	-0.16043198
71	0xbd283698	-0.04106769
72	0x3b95cda8	0.0045716353
73	0xbcc0c4f3	-0.023531413
74	0xbdc28f10	-0.09499943
75	0xbe5a177c	-0.21298021
76	0x3e0f03a4	0.13966233
77	0xbdad3610	-0.08457577
78	0xbdf58c8c	-0.11989698
79	0x3d659c06	0.056057
80	0x3d8d2062	0.06890942
81	0xbd9aa3cc	-0.07550773
82	0xbe0a0ae2	-0.13480714
83	0xbda5513f	-0.08072137
84	0xbe0e6292	-0.13904789
85	0x3e329ca1	0.17442562
86	0x3ddd4a23	0.10805156
87	0xbe56d7a9	-0.20980705
88	0xbdbd0806	-0.09230046
89	0x3e187fee	0.14892551
90	0x3da6b8f2	0.08140744
91	0xbdd33eb0	-0.10314691
92	0x3d8e814b	0.069582544
93	0xbe536ed6	-0.2064775
94	0xbba19354	-0.004930893
95	0x3e277409	0.16352858
96	0xbd709e93	-0.05874498
97	0x3da319bf	0.07963895
98	0xbe008362	-0.12550119
99	0xbdf3ad64	-0.11898306
100	0x3d31a3bc	0.04336904
101	0xbe21627f	-0.1576023
102	0x3d66f9a2	0.056390412
103	0x3de2d03b	0.11074873
104	0xbd7f10f5	-0.06227203
105	0xbe1941a4	-0.14966446
106	0x3ceb6b95	0.028737823
107	0xbe123b34	-0.14280397
108	0xbd25ee7f	-0.04051065
109	0x3e1391bd	0.14411063
110	0x3d397a4a	0.04528264
111	0xbcc2edca	-0.023795027
112	0xbe16c883	-0.14724927
113	0xbe3a1290	-0.18171144
114	0x3ddfc47f	0.109261505
115	0xbbb15f14	-0.0054129455
116	0xbde8e7d7	-0.11372345
117	0x3dc7c45d	0.0975425
118	0xbdbf7462	-0.0934837
119	0xbd796b84	-0.06089355
120	0x3e05610f	0.13025306
121	0x3e62b0e9	0.22137798
122	0xbdfff5ae	-0.124980316
123	0x3e1baef3	0.15203457
124	0x3ca5bf91	0.020232948
125	0xbde4f225	-0.11178998
126	0xbe138431	-0.14405896
127	0xbd4a6d3f	-0.04942059
128	0xbe6b8122	-0.22998479
129	0x3e0cc56a	0.13747182
130	0x3d9b5c15	0.07585923
131	0x3e28463b	0.16433041
132	0xbdedc536	-0.116098806
133	0x3de46fa3	0.111541055
134	0x3ce278be	0.027645465
135	0x3dd7c38b	0.10535344
136	0xbe471a3a	-0.19443598
137	0x3dc398e5	0.09550647
138	0xbe0bd1ff	-0.13654326
139	0xbe3a98b1	-0.1822231
140	0xbe21e401	-0.15809633
141	0x3e11f8c8	0.14255059
142	0xbe139a89	-0.14414419
143	0x3d8af382	0.06784727
144	0x3d4f2485	0.050571937
145	0x3e50da68	0.20395815
146	0x3e2f76dd	0.17135186
147	0xbcdf6289	-0.027268665
148	0xbdd3c0e5	-0.10339526
149	0xbdd8209f	-0.10553097
150	0xbe4b531f	-0.19855927
151	0xbda5fdbb	-0.08105036
152	0x3b84456e	0.004036597
153	0xbe463573	-0.19356327
154	0xbe34f4ba	-0.17671481
155	0xbd2c0aaa	-0.042002358
156	0x3ca53c9e	0.020170506
157	0xbe20b654	-0.15694553
158	0x3e1c476a	0.15261617
159	0xbc8d2b35	-0.017232517
160	0x3d2df00d	0.04246526
161	0x3d608293	0.054812025
162	0x3d2921ee	0.041292123
163	0xbe4abba5	-0.19798143
164	0xbd651ddf	-0.05593669
165	0xbd8e1739	-0.06938023
166	0x3db65ca9	0.08904392
167	0x3d264e9a	0.040602304
168	0x3d42530d	0.047442485
169	0x3e39e83b	0.18154995
170	0x3e2951f9	0.16535176
171	0xbda2ed37	-0.079554014
172	0xbe5da725	-0.21645792
173	0xbe2e6ee9	-0.17034496
174	0xbe644913	-0.222935
175	0x3e51d115	0.20489915
176	0xbe2d5e35	-0.16930468
177	0xbc9188c3	-0.017765408
178	0x3d9bd1b9	0.07608361
179	0x3e44b0f4	0.19208127
180	0x3e651962	0.22372964
181	0x3e678bc1	0.22611906
182	0x3d390cdb	0.045178276
183	0x3dcce66c	0.10004887
184	0x3e00068f	0.12502502
185	0x3d270fcc	0.04078655
186	0x3e32656a	0.17421499
187	0xbcc5c47a	-0.024141539
188	0x3e31060b	0.17287461
189	0x3e124672	0.14284685
190	0xbe18c647	-0.14919387
191	0x3db2fc45	0.08739523
192	0xbd91cbd7	-0.071189575
193	0x3e04ed20	0.12981081
194	0x3e08bc62	0.13353112
195	0x3e0b98e2	0.13632539
196	0xbd966964	-0.073443204
197	0xbdb4c203	-0.08826067
198	0x3babe77c	0.005246101
199	0x3e318db3	0.1733921
200	0x3df8704f	0.12130796
201	0x3e56eea8	0.20989478
202	0xbe2d57fa	-0.16928092
203	0x3dcc1279	0.09964461
204	0x3d5ecdda	0.054395534
205	0x3e549acc	0.20762175
206	0xbd5af9b2	-0.053460784
207	0xbc9fc4ec	-0.01950308
208	0x3d3a9c44	0.045559183
209	0xbd4a7280	-0.049425602
210	0xbe1f81ba	-0.1557683
211	0x3e08f0e4	0.13373142
212	0x3e4f7d80	0.20262718
213	0x3e64765f	0.2231078
214	0xbc8fe202	-0.017563824
215	0x3d512ec8	0.051070005
216	0x3d8922f8	0.06696123
217	0xbd653c72	-0.05596585
218	0x3da79e58	0.081844985
219	0xbd0e2be5	-0.03470983
220	0xbd0d4104	-0.03448583
221	0xbbfa713d	-0.0076428936
222	0x3dc31d32	0.09527053
223	0x3dc74667	0.09730225
224	0x3dbaf5ff	0.09128951
225	0x3c493f3e	0.0122831445
226	0xbd17b310	-0.037036
227	0xbe0643ca	-0.13111797
228	0x3dd8d2d6	0.10587089
229	0xbda1b0e0	-0.07895064
230	0x3d16f773	0.03685708
231	0x3e591c97	0.21202312
232	0xbe607d7e	-0.21922871
233	0xbcf828aa	-0.030292828
234	0xbe235bad	-0.1595294
235	0xbcf96085	-0.030441532
236	0x3df1f409	0.11814124
237	0xbd5d0f69	-0.053969774
238	0xbe266427	-0.16249143
239	0xbd0d6403	-0.034519207
240	0xbd4bb811	-0.049736086
241	0x3e5e59b7	0.21713911
242	0xbe51fe3e	-0.20507142
243	0xbd8c441c	-0.06848928
244	0xbe341894	-0.17587501
245	0x3e694a3e	0.22782227
246	0xbe11ede7	-0.14250909
247	0xbdaf16a2	-0.08549239
248	0xbe15c436	-0.1462563
249	0x3de90e4f	0.11379682
250	0x3dbcf48e	0.092263326
251	0x3e0113a2	0.12605146
252	0x3d17c801	0.037055973
253	0x3dcb9287	0.09940057
254	0xbe26f884	-0.16305739
255	0x3d8d3b99	0.06896133
