submission_predictor_model_python.pth (torch, 56911 bytes, 24 tensors)

concat_embedder.code_emb_module.node_type_embedding.weight f4 [100, 32]
000000 75 01 77 bf 68 9f 9b 3e 53 5b c2 3f 9f dd 9c 3e
       -0.964866 0.30395055 1.518412 0.30637833
000010 e0 c4 13 bf 8e bf a2 bf b2 ab 82 bf be f1 6b 3f
       -0.5772228 -1.2714708 -1.0208647 0.92165744
000020 eb 67 32 3f 03 74 c6 3f 4f a7 a0 3d cd fa 4a 3f
       0.69689816 1.5504154 0.078444116 0.7928894
000030 db 38 bc 3e 6f 54 f3 3e 13 41 a1 be 00 b5 42 bf
       0.36762127 0.47525355 -0.3149496 -0.76057434
000040 c8 98 32 bf 56 4f bd 3f 3b 7a 9c 3f bf e7 2f bf
       -0.69764376 1.4789836 1.2224802 -0.6871299
000050 39 75 04 bd 39 40 4a bf bc 75 38 3e 13 5b 92 3e
       -0.032338355 -0.79004246 0.18013662 0.2858511
000060 54 3b 48 be d1 37 85 bf 6e f4 88 3f a4 9a 81 3f
       -0.19553882 -1.0407659 1.0699594 1.0125318
000070 43 09 2e bf fd c0 72 3f a4 1d 5e bf 59 3d 0b c0
       -0.6798288 0.94825727 -0.8676398 -2.1756194
000080 9f 21 02 be 2b c5 96 3f de 76 66 be 82 3d 18 3f
       -0.12708138 1.1778921 -0.22506282 0.59468853
000090 9b 23 9d 3d f8 31 5f bf 78 51 67 bf e4 cb af 3f
       0.07672807 -0.8718562 -0.90358686 1.3734097
0000a0 98 28 ed 3f 37 c8 93 3d 24 1d 3d 3f 31 06 52 bf
       1.8528013 0.07215922 0.7387259 -0.820407
0000b0 57 9b 23 3e b5 d7 36 be 5d 19 3d 3f b7 13 30 c0
       0.15977226 -0.17855723 0.73866826 -2.7512033
0000c0 59 87 10 bf f9 dd 45 bf 80 f4 68 3d bb 76 f1 bf
       -0.56456524 -0.7729183 0.0568738 -1.8864359
0000d0 6a bf 38 bf da c1 96 3f bd 56 ff be 2e 01 e1 3d
       -0.72167075 1.1777909 -0.49870864 0.10986553
0000e0 e2 78 35 3e ad 8b 05 c0 b6 08 dd 3f 9f 3b 2b 40
       0.17721894 -2.0866501 1.7268283 2.675514
0000f0 4f ee a5 bf 3b 78 4b 3e 13 99 87 3f d1 34 e8 3d
       -1.2963351 0.19870083 1.059359 0.11338199
000100 da 9f ab 3e 73 5b f6 bf 86 02 a2 bf 2f 2d 97 be
       0.33520395 -1.9246658 -1.265702 -0.2952666
000110 ca ae 2e 3f 64 6c e3 bf 8f 85 59 be 09 40 9b be
       0.68235457 -1.7767453 -0.21242355 -0.30322292
000120 f5 6d 4c 3f 72 8e 5d bf c0 de f6 be e0 7f 1f bf
       0.7985528 -0.8654548 -0.4821682 -0.62304497
000130 d6 4e d8 3e d9 e4 b0 3f 09 ec 5d bf d3 ff b1 bf
       0.42247647 1.3819839 -0.86688286 -1.3906196
000140 dc b5 86 3f eb 64 e5 3e aa 70 f4 3f 31 6b bd bf
       1.0524249 0.44803557 1.9096882 -1.4798337
000150 68 2b b6 3f a6 8f c1 be d3 98 3b be 51 ab 6f bf
       1.4231997 -0.37804908 -0.18320017 -0.93620783
000160 3d 1f 83 be 5c 11 23 bf cc 87 74 3d 75 dd 7c 3e
       -0.2560977 -0.63698363 0.05969982 0.24693854
000170 ec 8c ce be 4b e6 f3 be 1a fb 1a 40 be 0f 87 bf
       -0.4034189 -0.47636637 2.421576 -1.0551679
000180 91 6f 39 3f 9e dc 57 be 1f b5 81 be b4 0c da be
       0.7243586 -0.21080253 -0.25333497 -0.42587817
000190 fb fa 9c bf dc 49 3b be b1 9f 9a 3e b3 21 6b bf
       -1.2264093 -0.18289894 0.3019996 -0.91848296
0001a0 35 77 36 bf e5 6f aa bf d1 56 84 bf 40 f0 00 bd
       -0.71275645 -1.3315398 -1.0338994 -0.03147912
0001b0 fa bf ca 3d fc 1d 24 3b d3 53 76 3f df 04 7f be
       0.09899898 0.0025042286 0.96221656 -0.24904202
0001c0 b0 60 a9 be 92 43 05 3e da b6 09 bf 1d 79 50 bf
       -0.3308158 0.13014057 -0.53794634 -0.81434804
0001d0 62 69 96 3f 93 93 ee bd 12 07 ce bc c6 3c 2b 40
       1.175091 -0.11649241 -0.025149856 2.6755843
0001e0 43 a7 01 40 09 71 36 3f 0f 6f 10 c0 06 32 0f 3e
       2.0258338 0.7126623 -2.2567785 0.13983926
0001f0 df 03 f0 3e f6 ea e3 3f 9a c6 d7 be 17 31 ae 3c
       0.46877953 1.7806079 -0.42143708 0.021263642
000200 37 05 de be 22 9c 13 3e fa bb c7 bf 4e 04 8e 3f
       -0.43363354 0.14415029 -1.5604241 1.1095064
000210 94 b1 4b 3f c7 0d 68 3f c9 a8 00 40 a0 c8 15 3f
       0.7956784 0.9064602 2.0103018 0.58509254
000220 4a 9b 5c bd 35 4c be 3f ec b4 fd be 5a 6d df be
       -0.053859033 1.4867007 -0.49552095 -0.43638116
000230 64 78 d5 bd c2 32 15 3f 2b 6a d9 bd 1c 71 95 bf
       -0.10423353 0.58280575 -0.10615953 -1.1675143
000240 66 8a 18 c0 6c df 2d c0 71 ce 3b be cb 43 f1 3f
       -2.3834472 -2.7167616 -0.1834047 1.8848814
000250 35 6b 2b bf ea ea aa 3f 9a 79 b1 3f 8e 90 da 3f
       -0.6696046 1.335294 1.3865235 1.7075365
000260 15 74 0d 3f 77 06 5a bf 09 20 90 3f fc b7 f3 3e
       0.5525525 -0.85166115 1.1259776 0.47601306
000270 e4 61 01 3f 72 34 b6 bf 24 f8 be 3f 71 f1 37 c0
       0.50539994 -1.4234755 1.4919477 -2.8741114
000280 a4 35 f8 be f3 cb 8f bf 33 ea 78 3e 35 0d c3 bf
       -0.48478425 -1.1234115 0.2430809 -1.5238405
000290 90 d1 b2 3f 51 9f b8 be 7c ec 8a 3f f3 94 a2 bf
       1.3970203 -0.3605905 1.0853419 -1.2701706
0002a0 2d 3a 2b bf 0d 0e dd 3d ee b2 1c 3f db d9 c4 3f
       -0.66885644 0.107936956 0.61210525 1.5378984
0002b0 1c 5c f8 3f 49 94 1a 3e a9 bf 45 bc 55 b4 f7 be
       1.940311 0.15095629 -0.012069621 -0.4837977
0002c0 b9 04 7f 3f f3 b5 2d c0 42 88 4e 3f 7a 97 df 3e
       0.9961658 -2.7142303 0.8067666 0.43670255
0002d0 74 76 08 bf b1 e7 09 40 a6 7b 09 be 42 31 a7 3f
       -0.53305745 2.1547663 -0.13426074 1.3061907
0002e0 48 36 27 bf 24 64 b4 3e 5d 2a b2 be e6 d0 b0 bd
       -0.653172 0.3523265 -0.34797946 -0.08633594
0002f0 47 25 c5 bf 53 85 ca bf 13 c1 d6 be 49 5e 8f 3f
       -1.5402001 -1.5821937 -0.4194418 1.1200649
000300 91 0d b5 bd d6 38 86 bf ac 34 9d bf 2c d4 bc 3f
       -0.08840478 -1.0486095 -1.2281699 1.475225
000310 a1 e8 e4 bd fc ce c6 bf 4d a3 28 3e 5d 51 58 bf
       -0.11177183 -1.5531917 0.16468544 -0.8449915
000320 ac 67 07 3f 42 78 38 3e 68 c0 63 3f 66 de c9 3e
       0.52892566 0.18014625 0.88965464 0.3942749
000330 71 ec 75 3f 0d e3 5b bf 7a 68 d8 bf 27 6c 10 40
       0.96063906 -0.85893327 -1.6906884 2.256601
000340 a9 f5 13 c0 a9 6d 78 bf 47 a2 5d 3e 09 26 cb bf
       -2.311869 -0.9704233 0.21643935 -1.5870982
000350 45 61 94 be be ed 03 bf 5b 4f e8 3f 43 9b 55 be
       -0.2898046 -0.5153464 1.8149217 -0.20860009
000360 03 96 c1 3f 81 27 e5 3f da 1a 31 3e bd e4 c0 3f
       1.5123905 1.7902681 0.172954 1.5069805
000370 7e bb 14 3f 1a d5 93 bf d7 cd 05 bf 7f da 8e bf
       0.5809859 -1.1549408 -0.5226721 -1.116043
000380 2f ce 05 c0 26 90 8b bf a6 36 03 3f b6 83 b3 3f
       -2.0907094 -1.0903366 0.5125526 1.402457
000390 cf 2f 5a bf 36 b1 91 3c b4 c5 1a be 11 54 4e c0
       -0.852292 0.017784696 -0.1511448 -3.223881
0003a0 a6 59 63 3f 9c e4 07 3f 7f 77 a1 3f ee f6 9d 3f
       0.8880867 0.53083205 1.2614592 1.2340982
0003b0 ff 78 fe be b3 77 98 3f 04 2b b8 3e 31 5c e7 3f
       -0.49701688 1.1911529 0.35970318 1.807501
0003c0 cf 9f 8f bd f3 2d 57 bf 34 ec 03 be 93 e0 ab 3e
       -0.07012903 -0.8405449 -0.12883073 0.33569774
0003d0 18 64 2e be 42 c3 06 bf 85 c5 3e 3f 59 7d d0 3f
       -0.1703037 -0.5264169 0.7452014 1.6288253
0003e0 4a a7 8f 3f db c1 44 be 32 2e 8f 3f ec d4 ff be
       1.1222928 -0.19214575 1.1185973 -0.49967134
0003f0 85 2f 7e 3e 39 61 18 bf e0 f2 8c 3f b5 57 60 be
       0.24822815 -0.5952335 1.101162 -0.21908458

concat_embedder.code_emb_module.convs.0.bias f4 [64]
000000 d2 27 1c ba d6 48 37 ba 9b 6b 49 39 df 8a e3 39
       -0.00059568614 -0.00069917494 0.0001920894 0.0004340028
000010 f8 9a d1 39 d4 30 11 b7 b0 a7 7d 38 8c b7 4d 39
       0.00039979047 -8.654042e-06 6.047607e-05 0.000196187
000020 80 e2 8d b8 af 48 a0 39 db bc f2 b9 a0 aa a8 39
       -6.765593e-05 0.00030571732 -0.00046298545 0.00032170583
000030 b2 6d 43 39 99 93 21 b9 38 b0 84 b8 d8 f0 80 39
       0.00018637514 -0.00015409141 -6.327074e-05 0.00024593505
000040 6e 01 e6 b9 7f 30 6a 39 3e 9e 13 b9 0b 6b 80 b9
       -0.00043870084 0.00022334045 -0.00014077962 -0.00024493816
000050 cb dd f6 b9 ef 80 26 ba af dd ac 39 3d cf b5 39
       -0.00047086025 -0.000635161 0.00032971564 0.00034677415
000060 a0 60 81 b9 7f f8 21 b9 36 36 7e 37 fe 2b 40 39
       -0.0002467679 -0.00015446729 1.5152202e-05 0.00018326935
000070 b5 61 e5 39 74 8b 84 b9 6f 1c 0a 3a 12 ad 9d 39
       0.0004375108 -0.00025280903 0.0005268519 0.0003007432
000080 22 b1 06 39 63 47 1c b9 6b 9d 7d 39 9e ce 0b ba
       0.00012845223 -0.00014903913 0.00024186603 -0.00053332176
000090 72 99 24 39 96 82 92 b9 93 b5 1b b9 ae 39 bb b7
       0.00015697422 -0.00027944584 -0.00014849594 -2.2318996e-05
0000a0 8b 81 11 3a 85 23 3c 39 5c ed 90 b9 ba 7f e9 39
       0.00055506144 0.00017942309 -0.00027642667 0.00044536387
0000b0 0f d0 86 b9 6c aa 76 b8 a6 27 d2 38 4b 4d b2 39
       -0.00025713487 -5.880969e-05 0.000100209654 0.00034008393
0000c0 68 19 8e b7 b2 ea af b9 f6 b8 38 b9 91 17 43 b9
       -1.693955e-05 -0.00033553463 -0.00017616511 -0.00018605428
0000d0 e6 0c 3d 39 13 67 e3 b8 31 76 01 b9 90 c4 ea 38
       0.0001802925 -0.000108434026 -0.00012346428 0.00011194602
0000e0 30 39 13 3a 98 8b d6 39 ef 58 a8 b9 35 b4 fc b9
       0.00056161266 0.00040921266 -0.00032109718 -0.0004819945
0000f0 6b 60 d1 b8 19 5f 9f b8 c4 90 4d b9 1e 32 1b 3a
       -9.983856e-05 -7.599424e-05 -0.00019604253 0.0005920249

concat_embedder.code_emb_module.convs.0.lin.weight f4 [64, 32]
000000 63 cd 1a be aa 25 73 be 3f 10 6b 3e 4f e3 5a be
       -0.15117411 -0.23744836 0.22955416 -0.21375774
000010 13 9f 9d 3d 7b bf 57 3e 47 c6 1d 3e 6c d9 7a 3d
       0.076963566 0.21069138 0.15407668 0.061242506
000020 ee 62 33 3e 45 60 5f be 4c d4 cd bd b8 74 9b 3d
       0.17518207 -0.21814068 -0.10050258 0.07590622
000030 5e 5e af 3d 1f 36 65 be 01 99 02 bc f8 0c 0c 3e
       0.08562921 -0.22383927 -0.007971049 0.13676822
000040 62 c8 3f bd 17 e4 4e bb 80 60 03 be 31 8b 48 3e
       -0.04682196 -0.0031569058 -0.1282978 0.19584347
000050 58 ab c3 3d 0c 60 6f 3d 95 48 dc bd c1 94 6d bd
       0.095541656 0.058441207 -0.107560314 -0.05800319
000060 1b 8f 21 3e b1 9a 6e 3e 73 4c 01 3e 24 b8 3b be
       0.15777247 0.23301198 0.1262682 -0.18331963
000070 7a 08 03 be b6 5e cf bd 46 ba 62 3e df c4 30 3e
       -0.12796202 -0.101254866 0.2214137 0.172626
000080 52 eb 40 3e c0 c2 92 3d 92 12 0a be 74 15 e5 bd
       0.18839768 0.07166052 -0.13483647 -0.111857325
000090 db 24 34 bc cc 94 62 be 61 c3 75 3d cd 6a 05 bc
       -0.010995115 -0.22127074 0.06000078 -0.008143139
0000a0 7b c9 b9 bd 4e 0b 78 3e 7d 39 c9 3d cc d6 72 bd
       -0.090716325 0.24223062 0.09825418 -0.059286878
0000b0 07 d6 4f 3e 93 87 a4 bd 3d b3 47 3e c1 f3 c6 bc
       0.20296489 -0.08033671 0.19501968 -0.024286153
0000c0 98 de 30 bd ee 7d 6e 3c c7 f7 17 be 0b 88 40 3e
       -0.043181032 0.014556391 -0.14840613 0.18801896
0000d0 e1 b2 63 3a 8d b8 c5 bd d9 af 60 bd 12 a9 3f 3e
       0.0008686018 -0.09654341 -0.0548552 0.18716839
0000e0 63 76 55 bd 9e 03 72 be 3c da 74 3e 34 42 0e be
       -0.052114855 -0.23634192 0.23911375 -0.13892442
0000f0 5b e0 37 3e 1b 6b 9b 3c ac 8a f9 bd ee 0a 20 3e
       0.17956679 0.01897197 -0.12184653 0.1562917
000100 40 49 0f 3e 19 1a 6b 3e 28 4a 62 be 63 9e 55 3d
       0.13992786 0.22959174 -0.22098601 0.052153002
000110 75 31 72 3e f3 f4 82 bd e4 ae 2e 3e f3 17 d6 bd
       0.23651679 -0.063943766 0.17058903 -0.10453787
000120 1e 49 90 3d d2 8c 8d bc d3 0b 22 3d d6 06 69 3e
       0.07045196 -0.017279062 0.039562058 0.22756514
000130 ef 32 49 3e d6 70 1d be 94 33 44 be 43 5f 0d 3e
       0.19648336 -0.15375075 -0.191603 0.1380587
000140 41 bb 01 be 76 b6 45 3e 6f 14 17 3e 43 19 d2 bd
       -0.12669088 0.19307885 0.14753889 -0.102587245
000150 ad 6c 29 3d 85 6f d5 3d 6f 22 3f be 0b 99 59 3e
       0.041363407 0.10421661 -0.18665479 0.21249788
000160 af b8 02 3e df ee c3 3d 7b 58 61 3e 87 28 95 3c
       0.12765764 0.095670454 0.22006409 0.018207802
000170 5c ff 1c be ca 5b 08 3d fb 2d 7a 3e e9 51 3a 3e
       -0.15331787 0.033290662 0.24431603 0.18195309
000180 e5 3d a0 bd e1 aa 10 bd 36 61 28 be be 82 d4 3c
       -0.078243054 -0.035319213 -0.16443333 0.025941249
000190 47 a1 0a be 0a 1c 51 3d e7 a0 74 3e 8e db ac bd
       -0.13538085 0.05105213 0.23889504 -0.08440314
0001a0 ae 67 67 be e2 30 8b bb a9 9a d7 bb 0c 72 45 3d
       -0.22598144 -0.0042477706 -0.006579716 0.048204467
0001b0 b5 49 b2 3d 24 06 75 3e d4 6b d1 3d 41 d9 51 bc
       0.08705465 0.23928124 0.10225645 -0.012808145
0001c0 75 53 6c 3d b7 a9 96 bd c8 0c e8 3d d5 47 7a be
       0.05769678 -0.07356589 0.11330563 -0.24441464
0001d0 66 2d 1d be 6e 48 22 3c 8d bd 0e be 23 65 51 bd
       -0.1534935 0.009904964 -0.13939495 -0.051121842
0001e0 c0 79 6b be 91 e3 74 3e c2 0f 80 be fa 5b 65 bd
       -0.22995663 0.23914935 -0.25012022 -0.05599592
0001f0 67 0d 80 be d3 11 a2 bc 6e ec 45 be aa fe 77 3e
       -0.25010225 -0.01978389 -0.19328472 0.2421824
000200 27 5e 33 3d 2b dc bd bd 06 6a 74 3e 66 3b 91 3d
       0.043790963 -0.09270509 0.2386857 0.070914075
000210 ef 30 f1 bc 38 36 fc 3c 00 23 ac 3d 76 e8 d4 3d
       -0.029442279 0.030787572 0.08405113 0.10395901
000220 13 cb 71 bd 46 88 09 3e c5 f8 b0 3d a1 24 3b 3e
       -0.059031557 0.1343089 0.08641199 0.18275692
000230 bc 81 eb bd df a6 49 3e 67 aa 2c be a8 5f ee 3c
       -0.11499354 0.19692563 -0.16861878 0.029098347
000240 54 12 70 3d 4b f0 25 bb 39 db 92 3d 8e 22 4c be
       0.05861123 -0.0025320228 0.0717072 -0.19935057
000250 a5 a8 02 3e db d4 5f bd dd e2 58 bd 2c f5 a0 bd
       0.12759645 -0.054646354 -0.05295073 -0.07859263
000260 03 d9 6f bd 69 34 1e be 58 c2 a7 bd c6 f9 96 bd
       -0.058556568 -0.1544968 -0.08191365 -0.07371859
000270 5a f6 43 3e bd 98 42 3e bc 96 0f 3e 17 e1 5b 3e
       0.19136944 0.19003578 0.14022344 0.21472584
000280 91 05 5e be 09 2f 76 be 9e 77 74 be 78 94 83 bd
       -0.21681811 -0.2404138 -0.23873755 -0.064248025
000290 e0 92 2d 3e 72 72 3e 3e 98 11 19 be 76 33 6a 3e
       0.1695056 0.18598345 -0.14948118 0.22871193
0002a0 d5 5c 3a 3c e5 a4 4f be c0 9a 48 3c 04 32 14 3e
       0.011374672 -0.20277746 0.0122439265 0.14472204
0002b0 57 fa 1c be be f5 b2 bd f5 b5 19 3e 72 e6 46 3e
       -0.15329872 -0.08738278 0.15010817 0.19423845
0002c0 95 bd 7c be 3f 4b a4 bd b4 6a 1f 3e f7 62 2e bd
       -0.24681695 -0.080221646 0.15568048 -0.04257485
0002d0 77 6a 20 3d 2e 69 7a be 9c 0d d9 bd 86 b3 64 3e
       0.039164033 -0.24454185 -0.10598299 0.22334108
0002e0 8c 9d 1f 3d 36 41 1c 3d 63 42 ee bb be 38 98 3d
       0.038968608 0.038148127 -0.0072710975 0.07432698
0002f0 22 99 94 3d 15 d6 67 3e 8a 73 06 be a2 41 a2 bd
       0.0725577 0.2264026 -0.13130012 -0.07922675
000300 d8 95 2a 3e cf 1a fa 3d bb 93 1e 3e 6a 6c 3a 3e
       0.16658723 0.122121446 0.15486042 0.18205419
000310 05 64 16 be 90 46 ec bd 38 68 37 be 76 e0 09 3e
       -0.14686592 -0.11536896 -0.1791085 0.13464531
000320 6c 5e dd bc 44 1f 5d be 69 06 cc 3d 57 8e 18 bd
       -0.027022563 -0.21593958 0.0996216 -0.03724512
000330 9f 08 79 be 3b 19 0f 3e 84 f8 29 3c 5a 10 73 3e
       -0.24319695 0.13974468 0.010374192 0.23736706
000340 33 dc fd 3d 70 98 74 bb e4 00 51 bd 43 1f d2 3d
       0.12395515 -0.0037322305 -0.05102624 0.10259869
000350 b1 dc f4 bc c9 8d 3a be 92 25 55 3e 72 58 09 3e
       -0.02989039 -0.18218149 0.20815113 0.13412645
000360 d0 f4 0b 3e cb b7 e8 3d f3 5e 68 3e df 90 71 3e
       0.13667607 0.11363181 0.2269247 0.2359042
000370 69 fa eb ba b6 0f 05 bd d8 50 1b be 6b 9e 53 be
       -0.0018003705 -0.032485686 -0.15167558 -0.206659
000380 ec fd f5 3d 11 04 f1 bd 47 ff e5 3d 19 09 4a bd
       0.120113224 -0.11768354 0.11230331 -0.049325082
000390 16 a7 30 3e 8c db 9f 3d 9c 12 3f be 6d 3d 0c 3e
       0.17251238 0.07805547 -0.18659443 0.13695307
0003a0 5d 5a 52 3e 35 27 89 3c 5c ed 7b bb 5f e5 37 3d
       0.20542283 0.016742328 -0.0038441038 0.04489648
0003b0 7c c9 89 3d 29 7b b5 bb 6d ce 7b 3e c7 d0 53 3e
       0.06727883 -0.0055383635 0.24590464 0.20685111
0003c0 82 f8 43 be 26 09 c2 3d f8 45 a9 3d 85 18 8d bd
       -0.19137767 0.09474401 0.082652986 -0.06889442
0003d0 bc a4 98 bd df 73 4f be 03 3e 5d bc c7 d5 cd 3d
       -0.074532956 -0.20259045 -0.013503554 0.100505404
0003e0 1a 7d a6 bd ad be db 3d f2 74 74 be e7 4a 17 3d
       -0.0812933 0.10729728 -0.23872736 0.036936667
0003f0 2a 9a 9d bd 8c 0a a6 3d 51 de 81 bd 7f c4 8d bc
       -0.0769542 0.081074804 -0.063412316 -0.01730561

concat_embedder.code_emb_module.convs.1.bias f4 [48]
000000 f7 5f 22 ba b8 33 12 ba 03 50 52 39 ca f3 b2 39
       -0.00061941094 -0.00055771647 0.00020056967 0.00034132443
000010 9b 01 9a 39 23 72 ca 38 53 6e 1c 3a d0 07 bf 35
       0.00029374365 9.65337e-05 0.00059673673 1.4232883e-06
000020 28 2e 85 39 5c 58 c3 b9 5d b6 a4 b8 05 01 c6 39
       0.00025402126 -0.0003725913 -7.854097e-05 0.00037766263
000030 ba a3 01 3a c1 f2 2c b9 d4 cf d2 b9 a9 7f 37 3a
       0.00049453566 -0.00016493631 -0.00040209165 0.0006999919
000040 3a b2 fd b8 df 1f f7 b9 6e 95 f8 39 62 85 9c 39
       -0.000120971774 -0.00047135257 0.0004741358 0.00029854017
000050 ec 35 e6 39 80 b5 1c 39 43 38 04 b9 74 d6 eb 39
       0.00043909193 0.00014944933 -0.0001260946 0.00044982473
000060 98 75 86 38 49 eb c0 38 1d 9d c9 38 a4 54 47 39
       6.4115215e-05 9.199099e-05 9.6136915e-05 0.0001900965
000070 d7 25 92 39 22 4f 93 b8 c8 34 3d 37 b4 a5 7b b9
       0.00027875483 -7.024246e-05 1.1277567e-05 -0.00023998955
000080 de 74 28 ba 74 b0 f9 b8 18 4c a9 b5 d8 06 b8 b9
       -0.0006426106 -0.00011906112 -1.2613627e-06 -0.00035100314
000090 26 5d 37 3a f6 4c e0 b8 fc a6 32 b9 41 b3 b0 b9
       0.0006994776 -0.000106954874 -0.0001703761 -0.0003370289
0000a0 6d 23 db b9 75 af 00 b9 30 5f 0a 3a e2 83 1c ba
       -0.0004179733 -0.00012272394 0.0005278466 -0.000597058
0000b0 7f 97 27 b9 fd 5f d2 38 ce e4 2e 39 64 2f b6 b9
       -0.00015982798 0.000100314595 0.0001667917 -0.00034749054

concat_embedder.code_emb_module.convs.1.lin.weight f4 [48, 64]
000000 11 68 1a 3e b7 d7 36 3e 9d fc 0e 3d 0d f8 34 3e
       0.1507876 0.17855726 0.03490888 0.17672749
000010 c1 53 78 3d 37 04 23 be 7b 78 43 bd e6 41 35 be
       0.06062675 -0.15919577 -0.04772232 -0.1770092
000020 ae c3 24 3b 77 6b d9 3d 10 19 e4 bd 76 ae 67 3e
       0.0025141048 0.106162004 -0.11137593 0.22625145
000030 c0 36 dc bc e6 a0 00 be 66 f9 3f be 13 44 93 3d
       -0.026881576 -0.12561378 -0.18747482 0.071907185
000040 50 85 53 be a0 25 89 3d c3 e3 f6 3d b9 6a e2 3d
       -0.20656323 0.066966295 0.12055161 0.11055512
000050 91 30 10 3c 9e ca 98 3d 4b d7 4c be 3a e3 cb bd
       0.008800642 0.07460521 -0.20004003 -0.099554494
000060 b0 cd 3f be 9f 66 bf 3d ac 45 41 3e a6 a9 3a be
       -0.18730807 0.09345745 0.18874234 -0.18228778
000070 48 c3 d0 bd ae 77 82 bd fd 0f ca bd 62 2c 45 3d
       -0.10193497 -0.06370483 -0.09866331 0.04813803
000080 39 ce 21 3e f4 8b 2f 3e d4 80 61 bd 35 60 cf 3d
       0.15801324 0.17143232 -0.0550545 0.10125772
000090 2e 11 3d bd b6 5f c9 3d d6 a0 13 3e 25 13 00 bd
       -0.046158962 0.098327085 0.14416823 -0.031268258
0000a0 3a 75 22 bc 9d 24 43 3e 0d 68 71 bd dc 5d 4e 3e
       -0.009915644 0.19056936 -0.05893712 0.20152992
0000b0 83 0b 01 bd 46 b6 e3 3d 12 89 2c 3e 5e eb c5 bd
       -0.03150512 0.1111875 0.16849163 -0.09664033
0000c0 1c e4 d5 bd 2c 3a 51 be 9d 6f ac 3d 90 c0 80 3d
       -0.10443899 -0.20432347 0.08419726 0.062867284
0000d0 b5 a5 58 be c5 b9 52 3e d4 cd c1 bd c1 0c 25 3d
       -0.21156962 0.20578678 -0.09463087 0.040295366
0000e0 c2 da 32 be ae 92 61 bd 95 ef 5f 3e 48 11 2d 3e
       -0.17466262 -0.055071525 0.21868737 0.16901124
0000f0 af 18 34 bd e1 a9 28 be 67 9b 4c be 89 19 c3 bc
       -0.043968853 -0.16471054 -0.19981156 -0.023815887
000100 75 95 19 bc ec e1 3e be 02 fd 28 be 97 b3 52 be
       -0.009374012 -0.1864087 -0.16502765 -0.2057632
000110 92 e9 60 3b 65 bb cc bb 30 19 57 be 7f 48 97 3d
       0.0034318906 -0.006247925 -0.21005702 0.073868744
000120 57 66 19 be 8d b6 26 bd c6 57 bf 3d 30 33 ef bd
       -0.14980446 -0.040701438 0.09342913 -0.11679685
000130 12 c3 2a bd 83 ac e3 bd a1 ba 2d 3e 42 bc a7 bd
       -0.04168994 -0.111168884 0.16965725 -0.08190204
000140 e4 0f 14 3d a4 45 03 be e6 79 79 bd b1 a1 f9 3d
       0.036147967 -0.12819535 -0.060907267 0.12189043
000150 c4 7d 3d 3e 25 a3 42 3e 89 9f 33 bd e2 c6 1b 3e
       0.18505007 0.19007547 -0.043853316 0.15212587
000160 cc 1a 4e 3e af b9 4a be 69 2f 6d be 8b 58 62 3e
       0.2012741 -0.19797395 -0.23162617 0.22104089
000170 26 ee 19 3e 3d 91 4f 3c aa 62 d0 3d 2f fc 5b 3e
       0.15032253 0.012668905 0.10175069 0.21482919
000180 3a e3 63 be d0 74 2c 3c 1c cd 5e 3e 5d 27 67 be
       -0.22254649 0.010525897 0.2175793 -0.2257361
000190 b1 0e 10 be 35 37 0d 3e bf 1e 67 3d cb bd 1e bd
       -0.14068104 0.13790591 0.056425806 -0.03875522
0001a0 67 e5 05 be cd b2 24 be ea bf 1d 3d 74 39 44 be
       -0.13075791 -0.16083832 0.0385131 -0.19162542
0001b0 17 e8 ff bd a6 4b c5 bc 25 bd 0a 3c ab eb c7 3d
       -0.124954395 -0.024083924 0.008467947 0.09761747
0001c0 b8 e2 b8 3d 5f b2 60 be b9 cc bd 3d 8d 7a 2b bd
       0.09027618 -0.21943043 0.092675634 -0.04186492
0001d0 4f 86 0b be 03 c8 9c 3d 0b 9e ea bd 99 9e 12 be
       -0.13625453 0.07655337 -0.114559256 -0.14318313
0001e0 7d 61 50 3d ab ee c9 bd ec d8 ff 3d 8c d4 21 be
       0.050874222 -0.098599754 0.124925464 -0.15803736
0001f0 28 44 2c 3e 39 af c4 3d af 70 bf 3d ca 10 97 3d
       0.16822875 0.096037336 0.093476646 0.07376249
000200 b7 f2 0e 3e ec 71 fb 3d 61 9b ec 3d 8d eb 2f 3e
       0.13959776 0.12277588 0.11553074 0.17179699
000210 7f f7 1f be bc 80 60 be 6f 1e 15 be 6b 2b 89 3b
       -0.15621756 -0.21924108 -0.1456239 0.004186084
000220 98 58 1f 3e 76 40 12 3e 6b cb 12 3e 13 9c 74 3d
       0.1556114 0.14282402 0.1433541 0.059719156
000230 69 c7 bb bd 1d f8 db bd 1e c5 c8 3d db a0 7e bd
       -0.09168894 -0.10740683 0.09803222 -0.062165122
000240 f4 a4 14 be e3 87 c0 3d 8d 92 89 bd dd dd e1 3d
       -0.1451605 0.09400918 -0.067174055 0.11028645
000250 5f ea e8 bd 21 dc 0e 3e 46 88 d1 3d 38 34 42 3e
       -0.11372828 0.1395116 0.1023107 0.18965232
000260 19 17 ea bd 8c fb d3 bd 1c 5f 0e be 65 d4 32 3d
       -0.11430187 -0.10350713 -0.13903469 0.043659586
000270 ad 81 33 3e e6 09 37 be 6a 72 a1 3d 2d c1 3c be
       0.17529936 -0.1787487 0.07883151 -0.18433066
000280 89 03 b1 3d 63 ff f2 3d 20 3e 0c bd 95 3e dd bc
       0.086432524 0.118651174 -0.034238935 -0.02700738
000290 59 a1 71 bd db c2 d4 bd 4b 6a 13 be a9 ff 1f be
       -0.058991764 -0.10388728 -0.14396016 -0.1562487
0002a0 72 9b eb bd 5b 0d 67 be 42 2a 30 3e 30 37 c6 bd
       -0.11504258 -0.22563688 0.1720362 -0.09678495
0002b0 93 98 15 3e 28 e3 2c 3c b9 47 50 bc 80 da 65 3e
       0.14608984 0.010552205 -0.0127124125 0.22446632
0002c0 2e cb 24 be f7 56 18 be 37 61 6a bd 7b 30 20 be
       -0.16093132 -0.14876924 -0.057221618 -0.15643494
0002d0 cc e6 66 bd d3 a1 4c 3d 7a 86 f5 3d b3 23 69 3e
       -0.05637245 0.049959015 0.1198854 0.22767524
0002e0 dd 0c e5 bc 3d 3a 61 bd f0 c3 fb 3d 97 8a 0a 3d
       -0.027960235 -0.05498718 0.122932315 0.033823576
0002f0 ee ec fb bd 51 35 32 bd c5 dc b5 3d 5b 06 33 3d
       -0.1230105 -0.043507878 0.08879999 0.043707233
000300 ff b8 1f bd 2f 53 ec 3d 7b dc 16 3e c5 c5 8e 3d
       -0.038994785 0.115393035 0.14732544 0.06971315
000310 10 34 3c be d3 62 8e 3c 53 16 0f be aa 5a d0 bd
       -0.18379235 0.017381107 -0.1397336 -0.10173543
000320 27 c0 0c be 8c f5 5e be b2 2b c3 3d f4 af 0d 3e
       -0.13745175 -0.21773356 0.095298186 0.13836652
000330 5c c9 3d be 43 30 f7 bd 22 8c 6b be f6 e0 1b 3e
       -0.18533844 -0.12069752 -0.23002675 0.15222535
000340 32 f1 e5 bd 0a 40 31 bc b7 b1 52 be bf c4 48 3e
       -0.11227645 -0.010818491 -0.20575605 0.19606303
000350 3a 7c 14 3e 2f c8 eb bd eb ec 48 3d c2 0a a2 bb
       0.14500514 -0.11512791 0.049054068 -0.00494513
000360 81 b6 0e be 71 a1 31 be 31 b9 5d 3d 39 64 47 be
       -0.13936807 -0.17346741 0.05413169 -0.19471826
000370 d7 d7 58 be 84 38 69 be 2b d5 3d 3e bf 1a e9 bd
       -0.21176086 -0.22775465 0.18538348 -0.113820545
000380 56 d3 e2 bc 93 f7 c8 3d 1c 4b 99 3d 2e 27 e8 bd
       -0.027688663 0.09812846 0.07485029 -0.11335598
000390 48 42 38 3e 0d 8c 2d 3e 99 ba 4c bd 67 df 8b 3d
       0.17994034 0.16947956 -0.04998264 0.0682972
0003a0 28 0d 26 3e 8d 4a 54 be 7d 45 6c be af 6c 90 3d
       0.16215956 -0.20731564 -0.23073383 0.0705198
0003b0 cb 41 02 3d d5 60 83 bc b8 cf 28 bd 5b f0 8e 3d
       0.031801026 -0.016037384 -0.04121372 0.06979438
0003c0 c9 9b 8e ba e2 17 63 3e 08 76 87 3d 15 4d 0a 3e
       -0.0010880168 0.2217708 0.066143095 0.13505967
0003d0 b1 9e 91 bd c8 94 01 bd 4a 9b 0b 3e 1c 58 a8 3c
       -0.07110346 -0.03163603 0.13633457 0.020549826
0003e0 bf 86 f8 bd 7d 86 bc 3d eb 58 1d 3e 03 3a 99 3d
       -0.12135076 0.09205339 0.15365951 0.07481768
0003f0 46 27 54 3e a2 2a cc 39 56 84 26 be 24 ef f7 bd
       0.20718107 0.00038941676 -0.1626142 -0.12106159

concat_embedder.code_emb.node_type_embedding.weight f4 [100, 32]
000000 75 01 77 bf 68 9f 9b 3e 53 5b c2 3f 9f dd 9c 3e
       -0.964866 0.30395055 1.518412 0.30637833
000010 e0 c4 13 bf 8e bf a2 bf b2 ab 82 bf be f1 6b 3f
       -0.5772228 -1.2714708 -1.0208647 0.92165744
000020 eb 67 32 3f 03 74 c6 3f 4f a7 a0 3d cd fa 4a 3f
       0.69689816 1.5504154 0.078444116 0.7928894
000030 db 38 bc 3e 6f 54 f3 3e 13 41 a1 be 00 b5 42 bf
       0.36762127 0.47525355 -0.3149496 -0.76057434
000040 c8 98 32 bf 56 4f bd 3f 3b 7a 9c 3f bf e7 2f bf
       -0.69764376 1.4789836 1.2224802 -0.6871299
000050 39 75 04 bd 39 40 4a bf bc 75 38 3e 13 5b 92 3e
       -0.032338355 -0.79004246 0.18013662 0.2858511
000060 54 3b 48 be d1 37 85 bf 6e f4 88 3f a4 9a 81 3f
       -0.19553882 -1.0407659 1.0699594 1.0125318
000070 43 09 2e bf fd c0 72 3f a4 1d 5e bf 59 3d 0b c0
       -0.6798288 0.94825727 -0.8676398 -2.1756194
000080 9f 21 02 be 2b c5 96 3f de 76 66 be 82 3d 18 3f
       -0.12708138 1.1778921 -0.22506282 0.59468853
000090 9b 23 9d 3d f8 31 5f bf 78 51 67 bf e4 cb af 3f
       0.07672807 -0.8718562 -0.90358686 1.3734097
0000a0 98 28 ed 3f 37 c8 93 3d 24 1d 3d 3f 31 06 52 bf
       1.8528013 0.07215922 0.7387259 -0.820407
0000b0 57 9b 23 3e b5 d7 36 be 5d 19 3d 3f b7 13 30 c0
       0.15977226 -0.17855723 0.73866826 -2.7512033
0000c0 59 87 10 bf f9 dd 45 bf 80 f4 68 3d bb 76 f1 bf
       -0.56456524 -0.7729183 0.0568738 -1.8864359
0000d0 6a bf 38 bf da c1 96 3f bd 56 ff be 2e 01 e1 3d
       -0.72167075 1.1777909 -0.49870864 0.10986553
0000e0 e2 78 35 3e ad 8b 05 c0 b6 08 dd 3f 9f 3b 2b 40
       0.17721894 -2.0866501 1.7268283 2.675514
0000f0 4f ee a5 bf 3b 78 4b 3e 13 99 87 3f d1 34 e8 3d
       -1.2963351 0.19870083 1.059359 0.11338199
000100 da 9f ab 3e 73 5b f6 bf 86 02 a2 bf 2f 2d 97 be
       0.33520395 -1.9246658 -1.265702 -0.2952666
000110 ca ae 2e 3f 64 6c e3 bf 8f 85 59 be 09 40 9b be
       0.68235457 -1.7767453 -0.21242355 -0.30322292
000120 f5 6d 4c 3f 72 8e 5d bf c0 de f6 be e0 7f 1f bf
       0.7985528 -0.8654548 -0.4821682 -0.62304497
000130 d6 4e d8 3e d9 e4 b0 3f 09 ec 5d bf d3 ff b1 bf
       0.42247647 1.3819839 -0.86688286 -1.3906196
000140 dc b5 86 3f eb 64 e5 3e aa 70 f4 3f 31 6b bd bf
       1.0524249 0.44803557 1.9096882 -1.4798337
000150 68 2b b6 3f a6 8f c1 be d3 98 3b be 51 ab 6f bf
       1.4231997 -0.37804908 -0.18320017 -0.93620783
000160 3d 1f 83 be 5c 11 23 bf cc 87 74 3d 75 dd 7c 3e
       -0.2560977 -0.63698363 0.05969982 0.24693854
000170 ec 8c ce be 4b e6 f3 be 1a fb 1a 40 be 0f 87 bf
       -0.4034189 -0.47636637 2.421576 -1.0551679
000180 91 6f 39 3f 9e dc 57 be 1f b5 81 be b4 0c da be
       0.7243586 -0.21080253 -0.25333497 -0.42587817
000190 fb fa 9c bf dc 49 3b be b1 9f 9a 3e b3 21 6b bf
       -1.2264093 -0.18289894 0.3019996 -0.91848296
0001a0 35 77 36 bf e5 6f aa bf d1 56 84 bf 40 f0 00 bd
       -0.71275645 -1.3315398 -1.0338994 -0.03147912
0001b0 fa bf ca 3d fc 1d 24 3b d3 53 76 3f df 04 7f be
       0.09899898 0.0025042286 0.96221656 -0.24904202
0001c0 b0 60 a9 be 92 43 05 3e da b6 09 bf 1d 79 50 bf
       -0.3308158 0.13014057 -0.53794634 -0.81434804
0001d0 62 69 96 3f 93 93 ee bd 12 07 ce bc c6 3c 2b 40
       1.175091 -0.11649241 -0.025149856 2.6755843
0001e0 43 a7 01 40 09 71 36 3f 0f 6f 10 c0 06 32 0f 3e
       2.0258338 0.7126623 -2.2567785 0.13983926
0001f0 df 03 f0 3e f6 ea e3 3f 9a c6 d7 be 17 31 ae 3c
       0.46877953 1.7806079 -0.42143708 0.021263642
000200 37 05 de be 22 9c 13 3e fa bb c7 bf 4e 04 8e 3f
       -0.43363354 0.14415029 -1.5604241 1.1095064
000210 94 b1 4b 3f c7 0d 68 3f c9 a8 00 40 a0 c8 15 3f
       0.7956784 0.9064602 2.0103018 0.58509254
000220 4a 9b 5c bd 35 4c be 3f ec b4 fd be 5a 6d df be
       -0.053859033 1.4867007 -0.49552095 -0.43638116
000230 64 78 d5 bd c2 32 15 3f 2b 6a d9 bd 1c 71 95 bf
       -0.10423353 0.58280575 -0.10615953 -1.1675143
000240 66 8a 18 c0 6c df 2d c0 71 ce 3b be cb 43 f1 3f
       -2.3834472 -2.7167616 -0.1834047 1.8848814
000250 35 6b 2b bf ea ea aa 3f 9a 79 b1 3f 8e 90 da 3f
       -0.6696046 1.335294 1.3865235 1.7075365
000260 15 74 0d 3f 77 06 5a bf 09 20 90 3f fc b7 f3 3e
       0.5525525 -0.85166115 1.1259776 0.47601306
000270 e4 61 01 3f 72 34 b6 bf 24 f8 be 3f 71 f1 37 c0
       0.50539994 -1.4234755 1.4919477 -2.8741114
000280 a4 35 f8 be f3 cb 8f bf 33 ea 78 3e 35 0d c3 bf
       -0.48478425 -1.1234115 0.2430809 -1.5238405
000290 90 d1 b2 3f 51 9f b8 be 7c ec 8a 3f f3 94 a2 bf
       1.3970203 -0.3605905 1.0853419 -1.2701706
0002a0 2d 3a 2b bf 0d 0e dd 3d ee b2 1c 3f db d9 c4 3f
       -0.66885644 0.107936956 0.61210525 1.5378984
0002b0 1c 5c f8 3f 49 94 1a 3e a9 bf 45 bc 55 b4 f7 be
       1.940311 0.15095629 -0.012069621 -0.4837977
0002c0 b9 04 7f 3f f3 b5 2d c0 42 88 4e 3f 7a 97 df 3e
       0.9961658 -2.7142303 0.8067666 0.43670255
0002d0 74 76 08 bf b1 e7 09 40 a6 7b 09 be 42 31 a7 3f
       -0.53305745 2.1547663 -0.13426074 1.3061907
0002e0 48 36 27 bf 24 64 b4 3e 5d 2a b2 be e6 d0 b0 bd
       -0.653172 0.3523265 -0.34797946 -0.08633594
0002f0 47 25 c5 bf 53 85 ca bf 13 c1 d6 be 49 5e 8f 3f
       -1.5402001 -1.5821937 -0.4194418 1.1200649
000300 91 0d b5 bd d6 38 86 bf ac 34 9d bf 2c d4 bc 3f
       -0.08840478 -1.0486095 -1.2281699 1.475225
000310 a1 e8 e4 bd fc ce c6 bf 4d a3 28 3e 5d 51 58 bf
       -0.11177183 -1.5531917 0.16468544 -0.8449915
000320 ac 67 07 3f 42 78 38 3e 68 c0 63 3f 66 de c9 3e
       0.52892566 0.18014625 0.88965464 0.3942749
000330 71 ec 75 3f 0d e3 5b bf 7a 68 d8 bf 27 6c 10 40
       0.96063906 -0.85893327 -1.6906884 2.256601
000340 a9 f5 13 c0 a9 6d 78 bf 47 a2 5d 3e 09 26 cb bf
       -2.311869 -0.9704233 0.21643935 -1.5870982
000350 45 61 94 be be ed 03 bf 5b 4f e8 3f 43 9b 55 be
       -0.2898046 -0.5153464 1.8149217 -0.20860009
000360 03 96 c1 3f 81 27 e5 3f da 1a 31 3e bd e4 c0 3f
       1.5123905 1.7902681 0.172954 1.5069805
000370 7e bb 14 3f 1a d5 93 bf d7 cd 05 bf 7f da 8e bf
       0.5809859 -1.1549408 -0.5226721 -1.116043
000380 2f ce 05 c0 26 90 8b bf a6 36 03 3f b6 83 b3 3f
       -2.0907094 -1.0903366 0.5125526 1.402457
000390 cf 2f 5a bf 36 b1 91 3c b4 c5 1a be 11 54 4e c0
       -0.852292 0.017784696 -0.1511448 -3.223881
0003a0 a6 59 63 3f 9c e4 07 3f 7f 77 a1 3f ee f6 9d 3f
       0.8880867 0.53083205 1.2614592 1.2340982
0003b0 ff 78 fe be b3 77 98 3f 04 2b b8 3e 31 5c e7 3f
       -0.49701688 1.1911529 0.35970318 1.807501
0003c0 cf 9f 8f bd f3 2d 57 bf 34 ec 03 be 93 e0 ab 3e
       -0.07012903 -0.8405449 -0.12883073 0.33569774
0003d0 18 64 2e be 42 c3 06 bf 85 c5 3e 3f 59 7d d0 3f
       -0.1703037 -0.5264169 0.7452014 1.6288253
0003e0 4a a7 8f 3f db c1 44 be 32 2e 8f 3f ec d4 ff be
       1.1222928 -0.19214575 1.1185973 -0.49967134
0003f0 85 2f 7e 3e 39 61 18 bf e0 f2 8c 3f b5 57 60 be
       0.24822815 -0.5952335 1.101162 -0.21908458

concat_embedder.code_emb.convs.0.bias f4 [64]
000000 d2 27 1c ba d6 48 37 ba 9b 6b 49 39 df 8a e3 39
       -0.00059568614 -0.00069917494 0.0001920894 0.0004340028
000010 f8 9a d1 39 d4 30 11 b7 b0 a7 7d 38 8c b7 4d 39
       0.00039979047 -8.654042e-06 6.047607e-05 0.000196187
000020 80 e2 8d b8 af 48 a0 39 db bc f2 b9 a0 aa a8 39
       -6.765593e-05 0.00030571732 -0.00046298545 0.00032170583
000030 b2 6d 43 39 99 93 21 b9 38 b0 84 b8 d8 f0 80 39
       0.00018637514 -0.00015409141 -6.327074e-05 0.00024593505
000040 6e 01 e6 b9 7f 30 6a 39 3e 9e 13 b9 0b 6b 80 b9
       -0.00043870084 0.00022334045 -0.00014077962 -0.00024493816
000050 cb dd f6 b9 ef 80 26 ba af dd ac 39 3d cf b5 39
       -0.00047086025 -0.000635161 0.00032971564 0.00034677415
000060 a0 60 81 b9 7f f8 21 b9 36 36 7e 37 fe 2b 40 39
       -0.0002467679 -0.00015446729 1.5152202e-05 0.00018326935
000070 b5 61 e5 39 74 8b 84 b9 6f 1c 0a 3a 12 ad 9d 39
       0.0004375108 -0.00025280903 0.0005268519 0.0003007432
000080 22 b1 06 39 63 47 1c b9 6b 9d 7d 39 9e ce 0b ba
       0.00012845223 -0.00014903913 0.00024186603 -0.00053332176
000090 72 99 24 39 96 82 92 b9 93 b5 1b b9 ae 39 bb b7
       0.00015697422 -0.00027944584 -0.00014849594 -2.2318996e-05
0000a0 8b 81 11 3a 85 23 3c 39 5c ed 90 b9 ba 7f e9 39
       0.00055506144 0.00017942309 -0.00027642667 0.00044536387
0000b0 0f d0 86 b9 6c aa 76 b8 a6 27 d2 38 4b 4d b2 39
       -0.00025713487 -5.880969e-05 0.000100209654 0.00034008393
0000c0 68 19 8e b7 b2 ea af b9 f6 b8 38 b9 91 17 43 b9
       -1.693955e-05 -0.00033553463 -0.00017616511 -0.00018605428
0000d0 e6 0c 3d 39 13 67 e3 b8 31 76 01 b9 90 c4 ea 38
       0.0001802925 -0.000108434026 -0.00012346428 0.00011194602
0000e0 30 39 13 3a 98 8b d6 39 ef 58 a8 b9 35 b4 fc b9
       0.00056161266 0.00040921266 -0.00032109718 -0.0004819945
0000f0 6b 60 d1 b8 19 5f 9f b8 c4 90 4d b9 1e 32 1b 3a
       -9.983856e-05 -7.599424e-05 -0.00019604253 0.0005920249

concat_embedder.code_emb.convs.0.lin.weight f4 [64, 32]
000000 63 cd 1a be aa 25 73 be 3f 10 6b 3e 4f e3 5a be
       -0.15117411 -0.23744836 0.22955416 -0.21375774
000010 13 9f 9d 3d 7b bf 57 3e 47 c6 1d 3e 6c d9 7a 3d
       0.076963566 0.21069138 0.15407668 0.061242506
000020 ee 62 33 3e 45 60 5f be 4c d4 cd bd b8 74 9b 3d
       0.17518207 -0.21814068 -0.10050258 0.07590622
000030 5e 5e af 3d 1f 36 65 be 01 99 02 bc f8 0c 0c 3e
       0.08562921 -0.22383927 -0.007971049 0.13676822
000040 62 c8 3f bd 17 e4 4e bb 80 60 03 be 31 8b 48 3e
       -0.04682196 -0.0031569058 -0.1282978 0.19584347
000050 58 ab c3 3d 0c 60 6f 3d 95 48 dc bd c1 94 6d bd
       0.095541656 0.058441207 -0.107560314 -0.05800319
000060 1b 8f 21 3e b1 9a 6e 3e 73 4c 01 3e 24 b8 3b be
       0.15777247 0.23301198 0.1262682 -0.18331963
000070 7a 08 03 be b6 5e cf bd 46 ba 62 3e df c4 30 3e
       -0.12796202 -0.101254866 0.2214137 0.172626
000080 52 eb 40 3e c0 c2 92 3d 92 12 0a be 74 15 e5 bd
       0.18839768 0.07166052 -0.13483647 -0.111857325
000090 db 24 34 bc cc 94 62 be 61 c3 75 3d cd 6a 05 bc
       -0.010995115 -0.22127074 0.06000078 -0.008143139
0000a0 7b c9 b9 bd 4e 0b 78 3e 7d 39 c9 3d cc d6 72 bd
       -0.090716325 0.24223062 0.09825418 -0.059286878
0000b0 07 d6 4f 3e 93 87 a4 bd 3d b3 47 3e c1 f3 c6 bc
       0.20296489 -0.08033671 0.19501968 -0.024286153
0000c0 98 de 30 bd ee 7d 6e 3c c7 f7 17 be 0b 88 40 3e
       -0.043181032 0.014556391 -0.14840613 0.18801896
0000d0 e1 b2 63 3a 8d b8 c5 bd d9 af 60 bd 12 a9 3f 3e
       0.0008686018 -0.09654341 -0.0548552 0.18716839
0000e0 63 76 55 bd 9e 03 72 be 3c da 74 3e 34 42 0e be
       -0.052114855 -0.23634192 0.23911375 -0.13892442
0000f0 5b e0 37 3e 1b 6b 9b 3c ac 8a f9 bd ee 0a 20 3e
       0.17956679 0.01897197 -0.12184653 0.1562917
000100 40 49 0f 3e 19 1a 6b 3e 28 4a 62 be 63 9e 55 3d
       0.13992786 0.22959174 -0.22098601 0.052153002
000110 75 31 72 3e f3 f4 82 bd e4 ae 2e 3e f3 17 d6 bd
       0.23651679 -0.063943766 0.17058903 -0.10453787
000120 1e 49 90 3d d2 8c 8d bc d3 0b 22 3d d6 06 69 3e
       0.07045196 -0.017279062 0.039562058 0.22756514
000130 ef 32 49 3e d6 70 1d be 94 33 44 be 43 5f 0d 3e
       0.19648336 -0.15375075 -0.191603 0.1380587
000140 41 bb 01 be 76 b6 45 3e 6f 14 17 3e 43 19 d2 bd
       -0.12669088 0.19307885 0.14753889 -0.102587245
000150 ad 6c 29 3d 85 6f d5 3d 6f 22 3f be 0b 99 59 3e
       0.041363407 0.10421661 -0.18665479 0.21249788
000160 af b8 02 3e df ee c3 3d 7b 58 61 3e 87 28 95 3c
       0.12765764 0.095670454 0.22006409 0.018207802
000170 5c ff 1c be ca 5b 08 3d fb 2d 7a 3e e9 51 3a 3e
       -0.15331787 0.033290662 0.24431603 0.18195309
000180 e5 3d a0 bd e1 aa 10 bd 36 61 28 be be 82 d4 3c
       -0.078243054 -0.035319213 -0.16443333 0.025941249
000190 47 a1 0a be 0a 1c 51 3d e7 a0 74 3e 8e db ac bd
       -0.13538085 0.05105213 0.23889504 -0.08440314
0001a0 ae 67 67 be e2 30 8b bb a9 9a d7 bb 0c 72 45 3d
       -0.22598144 -0.0042477706 -0.006579716 0.048204467
0001b0 b5 49 b2 3d 24 06 75 3e d4 6b d1 3d 41 d9 51 bc
       0.08705465 0.23928124 0.10225645 -0.012808145
0001c0 75 53 6c 3d b7 a9 96 bd c8 0c e8 3d d5 47 7a be
       0.05769678 -0.07356589 0.11330563 -0.24441464
0001d0 66 2d 1d be 6e 48 22 3c 8d bd 0e be 23 65 51 bd
       -0.1534935 0.009904964 -0.13939495 -0.051121842
0001e0 c0 79 6b be 91 e3 74 3e c2 0f 80 be fa 5b 65 bd
       -0.22995663 0.23914935 -0.25012022 -0.05599592
0001f0 67 0d 80 be d3 11 a2 bc 6e ec 45 be aa fe 77 3e
       -0.25010225 -0.01978389 -0.19328472 0.2421824
000200 27 5e 33 3d 2b dc bd bd 06 6a 74 3e 66 3b 91 3d
       0.043790963 -0.09270509 0.2386857 0.070914075
000210 ef 30 f1 bc 38 36 fc 3c 00 23 ac 3d 76 e8 d4 3d
       -0.029442279 0.030787572 0.08405113 0.10395901
000220 13 cb 71 bd 46 88 09 3e c5 f8 b0 3d a1 24 3b 3e
       -0.059031557 0.1343089 0.08641199 0.18275692
000230 bc 81 eb bd df a6 49 3e 67 aa 2c be a8 5f ee 3c
       -0.11499354 0.19692563 -0.16861878 0.029098347
000240 54 12 70 3d 4b f0 25 bb 39 db 92 3d 8e 22 4c be
       0.05861123 -0.0025320228 0.0717072 -0.19935057
000250 a5 a8 02 3e db d4 5f bd dd e2 58 bd 2c f5 a0 bd
       0.12759645 -0.054646354 -0.05295073 -0.07859263
000260 03 d9 6f bd 69 34 1e be 58 c2 a7 bd c6 f9 96 bd
       -0.058556568 -0.1544968 -0.08191365 -0.07371859
000270 5a f6 43 3e bd 98 42 3e bc 96 0f 3e 17 e1 5b 3e
       0.19136944 0.19003578 0.14022344 0.21472584
000280 91 05 5e be 09 2f 76 be 9e 77 74 be 78 94 83 bd
       -0.21681811 -0.2404138 -0.23873755 -0.064248025
000290 e0 92 2d 3e 72 72 3e 3e 98 11 19 be 76 33 6a 3e
       0.1695056 0.18598345 -0.14948118 0.22871193
0002a0 d5 5c 3a 3c e5 a4 4f be c0 9a 48 3c 04 32 14 3e
       0.011374672 -0.20277746 0.0122439265 0.14472204
0002b0 57 fa 1c be be f5 b2 bd f5 b5 19 3e 72 e6 46 3e
       -0.15329872 -0.08738278 0.15010817 0.19423845
0002c0 95 bd 7c be 3f 4b a4 bd b4 6a 1f 3e f7 62 2e bd
       -0.24681695 -0.080221646 0.15568048 -0.04257485
0002d0 77 6a 20 3d 2e 69 7a be 9c 0d d9 bd 86 b3 64 3e
       0.039164033 -0.24454185 -0.10598299 0.22334108
0002e0 8c 9d 1f 3d 36 41 1c 3d 63 42 ee bb be 38 98 3d
       0.038968608 0.038148127 -0.0072710975 0.07432698
0002f0 22 99 94 3d 15 d6 67 3e 8a 73 06 be a2 41 a2 bd
       0.0725577 0.2264026 -0.13130012 -0.07922675
000300 d8 95 2a 3e cf 1a fa 3d bb 93 1e 3e 6a 6c 3a 3e
       0.16658723 0.122121446 0.15486042 0.18205419
000310 05 64 16 be 90 46 ec bd 38 68 37 be 76 e0 09 3e
       -0.14686592 -0.11536896 -0.1791085 0.13464531
000320 6c 5e dd bc 44 1f 5d be 69 06 cc 3d 57 8e 18 bd
       -0.027022563 -0.21593958 0.0996216 -0.03724512
000330 9f 08 79 be 3b 19 0f 3e 84 f8 29 3c 5a 10 73 3e
       -0.24319695 0.13974468 0.010374192 0.23736706
000340 33 dc fd 3d 70 98 74 bb e4 00 51 bd 43 1f d2 3d
       0.12395515 -0.0037322305 -0.05102624 0.10259869
000350 b1 dc f4 bc c9 8d 3a be 92 25 55 3e 72 58 09 3e
       -0.02989039 -0.18218149 0.20815113 0.13412645
000360 d0 f4 0b 3e cb b7 e8 3d f3 5e 68 3e df 90 71 3e
       0.13667607 0.11363181 0.2269247 0.2359042
000370 69 fa eb ba b6 0f 05 bd d8 50 1b be 6b 9e 53 be
       -0.0018003705 -0.032485686 -0.15167558 -0.206659
000380 ec fd f5 3d 11 04 f1 bd 47 ff e5 3d 19 09 4a bd
       0.120113224 -0.11768354 0.11230331 -0.049325082
000390 16 a7 30 3e 8c db 9f 3d 9c 12 3f be 6d 3d 0c 3e
       0.17251238 0.07805547 -0.18659443 0.13695307
0003a0 5d 5a 52 3e 35 27 89 3c 5c ed 7b bb 5f e5 37 3d
       0.20542283 0.016742328 -0.0038441038 0.04489648
0003b0 7c c9 89 3d 29 7b b5 bb 6d ce 7b 3e c7 d0 53 3e
       0.06727883 -0.0055383635 0.24590464 0.20685111
0003c0 82 f8 43 be 26 09 c2 3d f8 45 a9 3d 85 18 8d bd
       -0.19137767 0.09474401 0.082652986 -0.06889442
0003d0 bc a4 98 bd df 73 4f be 03 3e 5d bc c7 d5 cd 3d
       -0.074532956 -0.20259045 -0.013503554 0.100505404
0003e0 1a 7d a6 bd ad be db 3d f2 74 74 be e7 4a 17 3d
       -0.0812933 0.10729728 -0.23872736 0.036936667
0003f0 2a 9a 9d bd 8c 0a a6 3d 51 de 81 bd 7f c4 8d bc
       -0.0769542 0.081074804 -0.063412316 -0.01730561

concat_embedder.code_emb.convs.1.bias f4 [48]
000000 f7 5f 22 ba b8 33 12 ba 03 50 52 39 ca f3 b2 39
       -0.00061941094 -0.00055771647 0.00020056967 0.00034132443
000010 9b 01 9a 39 23 72 ca 38 53 6e 1c 3a d0 07 bf 35
       0.00029374365 9.65337e-05 0.00059673673 1.4232883e-06
000020 28 2e 85 39 5c 58 c3 b9 5d b6 a4 b8 05 01 c6 39
       0.00025402126 -0.0003725913 -7.854097e-05 0.00037766263
000030 ba a3 01 3a c1 f2 2c b9 d4 cf d2 b9 a9 7f 37 3a
       0.00049453566 -0.00016493631 -0.00040209165 0.0006999919
000040 3a b2 fd b8 df 1f f7 b9 6e 95 f8 39 62 85 9c 39
       -0.000120971774 -0.00047135257 0.0004741358 0.00029854017
000050 ec 35 e6 39 80 b5 1c 39 43 38 04 b9 74 d6 eb 39
       0.00043909193 0.00014944933 -0.0001260946 0.00044982473
000060 98 75 86 38 49 eb c0 38 1d 9d c9 38 a4 54 47 39
       6.4115215e-05 9.199099e-05 9.6136915e-05 0.0001900965
000070 d7 25 92 39 22 4f 93 b8 c8 34 3d 37 b4 a5 7b b9
       0.00027875483 -7.024246e-05 1.1277567e-05 -0.00023998955
000080 de 74 28 ba 74 b0 f9 b8 18 4c a9 b5 d8 06 b8 b9
       -0.0006426106 -0.00011906112 -1.2613627e-06 -0.00035100314
000090 26 5d 37 3a f6 4c e0 b8 fc a6 32 b9 41 b3 b0 b9
       0.0006994776 -0.000106954874 -0.0001703761 -0.0003370289
0000a0 6d 23 db b9 75 af 00 b9 30 5f 0a 3a e2 83 1c ba
       -0.0004179733 -0.00012272394 0.0005278466 -0.000597058
0000b0 7f 97 27 b9 fd 5f d2 38 ce e4 2e 39 64 2f b6 b9
       -0.00015982798 0.000100314595 0.0001667917 -0.00034749054

concat_embedder.code_emb.convs.1.lin.weight f4 [48, 64]
000000 11 68 1a 3e b7 d7 36 3e 9d fc 0e 3d 0d f8 34 3e
       0.1507876 0.17855726 0.03490888 0.17672749
000010 c1 53 78 3d 37 04 23 be 7b 78 43 bd e6 41 35 be
       0.06062675 -0.15919577 -0.04772232 -0.1770092
000020 ae c3 24 3b 77 6b d9 3d 10 19 e4 bd 76 ae 67 3e
       0.0025141048 0.106162004 -0.11137593 0.22625145
000030 c0 36 dc bc e6 a0 00 be 66 f9 3f be 13 44 93 3d
       -0.026881576 -0.12561378 -0.18747482 0.071907185
000040 50 85 53 be a0 25 89 3d c3 e3 f6 3d b9 6a e2 3d
       -0.20656323 0.066966295 0.12055161 0.11055512
000050 91 30 10 3c 9e ca 98 3d 4b d7 4c be 3a e3 cb bd
       0.008800642 0.07460521 -0.20004003 -0.099554494
000060 b0 cd 3f be 9f 66 bf 3d ac 45 41 3e a6 a9 3a be
       -0.18730807 0.09345745 0.18874234 -0.18228778
000070 48 c3 d0 bd ae 77 82 bd fd 0f ca bd 62 2c 45 3d
       -0.10193497 -0.06370483 -0.09866331 0.04813803
000080 39 ce 21 3e f4 8b 2f 3e d4 80 61 bd 35 60 cf 3d
       0.15801324 0.17143232 -0.0550545 0.10125772
000090 2e 11 3d bd b6 5f c9 3d d6 a0 13 3e 25 13 00 bd
       -0.046158962 0.098327085 0.14416823 -0.031268258
0000a0 3a 75 22 bc 9d 24 43 3e 0d 68 71 bd dc 5d 4e 3e
       -0.009915644 0.19056936 -0.05893712 0.20152992
0000b0 83 0b 01 bd 46 b6 e3 3d 12 89 2c 3e 5e eb c5 bd
       -0.03150512 0.1111875 0.16849163 -0.09664033
0000c0 1c e4 d5 bd 2c 3a 51 be 9d 6f ac 3d 90 c0 80 3d
       -0.10443899 -0.20432347 0.08419726 0.062867284
0000d0 b5 a5 58 be c5 b9 52 3e d4 cd c1 bd c1 0c 25 3d
       -0.21156962 0.20578678 -0.09463087 0.040295366
0000e0 c2 da 32 be ae 92 61 bd 95 ef 5f 3e 48 11 2d 3e
       -0.17466262 -0.055071525 0.21868737 0.16901124
0000f0 af 18 34 bd e1 a9 28 be 67 9b 4c be 89 19 c3 bc
       -0.043968853 -0.16471054 -0.19981156 -0.023815887
000100 75 95 19 bc ec e1 3e be 02 fd 28 be 97 b3 52 be
       -0.009374012 -0.1864087 -0.16502765 -0.2057632
000110 92 e9 60 3b 65 bb cc bb 30 19 57 be 7f 48 97 3d
       0.0034318906 -0.006247925 -0.21005702 0.073868744
000120 57 66 19 be 8d b6 26 bd c6 57 bf 3d 30 33 ef bd
       -0.14980446 -0.040701438 0.09342913 -0.11679685
000130 12 c3 2a bd 83 ac e3 bd a1 ba 2d 3e 42 bc a7 bd
       -0.04168994 -0.111168884 0.16965725 -0.08190204
000140 e4 0f 14 3d a4 45 03 be e6 79 79 bd b1 a1 f9 3d
       0.036147967 -0.12819535 -0.060907267 0.12189043
000150 c4 7d 3d 3e 25 a3 42 3e 89 9f 33 bd e2 c6 1b 3e
       0.18505007 0.19007547 -0.043853316 0.15212587
000160 cc 1a 4e 3e af b9 4a be 69 2f 6d be 8b 58 62 3e
       0.2012741 -0.19797395 -0.23162617 0.22104089
000170 26 ee 19 3e 3d 91 4f 3c aa 62 d0 3d 2f fc 5b 3e
       0.15032253 0.012668905 0.10175069 0.21482919
000180 3a e3 63 be d0 74 2c 3c 1c cd 5e 3e 5d 27 67 be
       -0.22254649 0.010525897 0.2175793 -0.2257361
000190 b1 0e 10 be 35 37 0d 3e bf 1e 67 3d cb bd 1e bd
       -0.14068104 0.13790591 0.056425806 -0.03875522
0001a0 67 e5 05 be cd b2 24 be ea bf 1d 3d 74 39 44 be
       -0.13075791 -0.16083832 0.0385131 -0.19162542
0001b0 17 e8 ff bd a6 4b c5 bc 25 bd 0a 3c ab eb c7 3d
       -0.124954395 -0.024083924 0.008467947 0.09761747
0001c0 b8 e2 b8 3d 5f b2 60 be b9 cc bd 3d 8d 7a 2b bd
       0.09027618 -0.21943043 0.092675634 -0.04186492
0001d0 4f 86 0b be 03 c8 9c 3d 0b 9e ea bd 99 9e 12 be
       -0.13625453 0.07655337 -0.114559256 -0.14318313
0001e0 7d 61 50 3d ab ee c9 bd ec d8 ff 3d 8c d4 21 be
       0.050874222 -0.098599754 0.124925464 -0.15803736
0001f0 28 44 2c 3e 39 af c4 3d af 70 bf 3d ca 10 97 3d
       0.16822875 0.096037336 0.093476646 0.07376249
000200 b7 f2 0e 3e ec 71 fb 3d 61 9b ec 3d 8d eb 2f 3e
       0.13959776 0.12277588 0.11553074 0.17179699
000210 7f f7 1f be bc 80 60 be 6f 1e 15 be 6b 2b 89 3b
       -0.15621756 -0.21924108 -0.1456239 0.004186084
000220 98 58 1f 3e 76 40 12 3e 6b cb 12 3e 13 9c 74 3d
       0.1556114 0.14282402 0.1433541 0.059719156
000230 69 c7 bb bd 1d f8 db bd 1e c5 c8 3d db a0 7e bd
       -0.09168894 -0.10740683 0.09803222 -0.062165122
000240 f4 a4 14 be e3 87 c0 3d 8d 92 89 bd dd dd e1 3d
       -0.1451605 0.09400918 -0.067174055 0.11028645
000250 5f ea e8 bd 21 dc 0e 3e 46 88 d1 3d 38 34 42 3e
       -0.11372828 0.1395116 0.1023107 0.18965232
000260 19 17 ea bd 8c fb d3 bd 1c 5f 0e be 65 d4 32 3d
       -0.11430187 -0.10350713 -0.13903469 0.043659586
000270 ad 81 33 3e e6 09 37 be 6a 72 a1 3d 2d c1 3c be
       0.17529936 -0.1787487 0.07883151 -0.18433066
000280 89 03 b1 3d 63 ff f2 3d 20 3e 0c bd 95 3e dd bc
       0.086432524 0.118651174 -0.034238935 -0.02700738
000290 59 a1 71 bd db c2 d4 bd 4b 6a 13 be a9 ff 1f be
       -0.058991764 -0.10388728 -0.14396016 -0.1562487
0002a0 72 9b eb bd 5b 0d 67 be 42 2a 30 3e 30 37 c6 bd
       -0.11504258 -0.22563688 0.1720362 -0.09678495
0002b0 93 98 15 3e 28 e3 2c 3c b9 47 50 bc 80 da 65 3e
       0.14608984 0.010552205 -0.0127124125 0.22446632
0002c0 2e cb 24 be f7 56 18 be 37 61 6a bd 7b 30 20 be
       -0.16093132 -0.14876924 -0.057221618 -0.15643494
0002d0 cc e6 66 bd d3 a1 4c 3d 7a 86 f5 3d b3 23 69 3e
       -0.05637245 0.049959015 0.1198854 0.22767524
0002e0 dd 0c e5 bc 3d 3a 61 bd f0 c3 fb 3d 97 8a 0a 3d
       -0.027960235 -0.05498718 0.122932315 0.033823576
0002f0 ee ec fb bd 51 35 32 bd c5 dc b5 3d 5b 06 33 3d
       -0.1230105 -0.043507878 0.08879999 0.043707233
000300 ff b8 1f bd 2f 53 ec 3d 7b dc 16 3e c5 c5 8e 3d
       -0.038994785 0.115393035 0.14732544 0.06971315
000310 10 34 3c be d3 62 8e 3c 53 16 0f be aa 5a d0 bd
       -0.18379235 0.017381107 -0.1397336 -0.10173543
000320 27 c0 0c be 8c f5 5e be b2 2b c3 3d f4 af 0d 3e
       -0.13745175 -0.21773356 0.095298186 0.13836652
000330 5c c9 3d be 43 30 f7 bd 22 8c 6b be f6 e0 1b 3e
       -0.18533844 -0.12069752 -0.23002675 0.15222535
000340 32 f1 e5 bd 0a 40 31 bc b7 b1 52 be bf c4 48 3e
       -0.11227645 -0.010818491 -0.20575605 0.19606303
000350 3a 7c 14 3e 2f c8 eb bd eb ec 48 3d c2 0a a2 bb
       0.14500514 -0.11512791 0.049054068 -0.00494513
000360 81 b6 0e be 71 a1 31 be 31 b9 5d 3d 39 64 47 be
       -0.13936807 -0.17346741 0.05413169 -0.19471826
000370 d7 d7 58 be 84 38 69 be 2b d5 3d 3e bf 1a e9 bd
       -0.21176086 -0.22775465 0.18538348 -0.113820545
000380 56 d3 e2 bc 93 f7 c8 3d 1c 4b 99 3d 2e 27 e8 bd
       -0.027688663 0.09812846 0.07485029 -0.11335598
000390 48 42 38 3e 0d 8c 2d 3e 99 ba 4c bd 67 df 8b 3d
       0.17994034 0.16947956 -0.04998264 0.0682972
0003a0 28 0d 26 3e 8d 4a 54 be 7d 45 6c be af 6c 90 3d
       0.16215956 -0.20731564 -0.23073383 0.0705198
0003b0 cb 41 02 3d d5 60 83 bc b8 cf 28 bd 5b f0 8e 3d
       0.031801026 -0.016037384 -0.04121372 0.06979438
0003c0 c9 9b 8e ba e2 17 63 3e 08 76 87 3d 15 4d 0a 3e
       -0.0010880168 0.2217708 0.066143095 0.13505967
0003d0 b1 9e 91 bd c8 94 01 bd 4a 9b 0b 3e 1c 58 a8 3c
       -0.07110346 -0.03163603 0.13633457 0.020549826
0003e0 bf 86 f8 bd 7d 86 bc 3d eb 58 1d 3e 03 3a 99 3d
       -0.12135076 0.09205339 0.15365951 0.07481768
0003f0 46 27 54 3e a2 2a cc 39 56 84 26 be 24 ef f7 bd
       0.20718107 0.00038941676 -0.1626142 -0.12106159
