submission_predictor_model_cpp.pth (torch, 56866 bytes, 24 tensors)

concat_embedder.code_emb_module.node_type_embedding.weight f4 [100, 32]
000000 4e 5e 1e 3f cc 22 88 3f 7d 98 ad 3f a6 37 a6 3f
       0.6186265 1.0635619 1.3562161 1.2985733
000010 30 b2 8a 3f 51 5d 32 bf d8 93 9e bf d3 0e 13 bf
       1.0835629 -0.6967364 -1.2388868 -0.57444495
000020 3f fc 65 be b7 80 be bf 39 51 a1 3e fc cf 86 3d
       -0.22459505 -1.4883031 0.3150728 0.065826386
000030 41 af 64 3e 20 5f 48 3f a1 b7 87 3f 70 31 be 3e
       0.22332479 0.7827015 1.0602914 0.37147093
000040 47 4b 28 3f f2 15 66 3f 91 59 20 3f 2a d0 e0 bf
       0.65739864 0.89877236 0.6263667 -1.7563527
000050 dd cb 90 3f 43 34 ae be e5 4a 89 be a6 bc 6b 3f
       1.1312214 -0.34024248 -0.26814952 0.9208473
000060 74 e2 50 bf 6a d8 fa be 5f c8 ba bf 60 d8 ab bd
       -0.8159554 -0.48993236 -1.4592398 -0.0839088
000070 d4 7b 63 3f 2a 65 0c bf 99 d9 50 bf a3 ee 98 bf
       0.8886082 -0.54841864 -0.8158203 -1.1947826
000080 45 7c 60 3e c4 09 c6 be 3d 73 96 3f 38 00 2d bf
       0.21922405 -0.38679326 1.1753918 -0.6757846
000090 c9 a4 0f 3f c1 52 1a 3e 76 cd 61 bf 0a bd 28 c0
       0.5611082 0.1507063 -0.88204134 -2.636538
0000a0 3f 0f f4 bf aa 57 85 bf d7 3f 3f bf 58 bb 85 3d
       -1.9067153 -1.0417378 -0.74706787 0.065298736
0000b0 b2 36 3e 3f bb b5 fa be 96 6b 1d c0 55 30 9c be
       0.7430221 -0.48966774 -2.4596915 -0.30505624
0000c0 38 8b 19 3f 68 a9 ec be 3e 00 c9 3e 8c 1a 80 3f
       0.59978056 -0.46222997 0.39257997 1.0008101
0000d0 16 99 84 3f 69 32 ba 3e 78 d7 59 3e ce 9f 1d 40
       1.0359218 0.36366585 0.21273601 2.4628787
0000e0 8a 04 00 bf 00 21 68 3f 5b f2 cc 3e 3f 1c 04 c0
       -0.50006926 0.90675354 0.40028653 -2.064224
0000f0 fd 15 4f bf 11 de 21 bf c3 e0 99 bf ba 62 96 be
       -0.80892926 -0.6322947 -1.2021717 -0.29372197
000100 47 4f 83 3f 37 47 2d 3f 8f 38 ae be 67 a2 aa be
       1.0258569 0.6768679 -0.34027526 -0.33327028
000110 9e 60 b5 bf 37 c9 75 3f 79 f6 a2 be fc c3 4d 3e
       -1.417011 0.96010154 -0.3182867 0.20094293
000120 e2 8c dd 3f b9 eb 3a bf aa d0 9c bf 78 99 c0 bf
       1.7308619 -0.73015934 -1.2251179 -1.5046835
000130 70 8d 92 bd 4d 4f 53 bf 97 16 7a 3e 50 53 6d 3f
       -0.07155883 -0.8254288 0.2442268 0.9270525
000140 36 e7 e5 3e 4a f8 14 bf 88 90 fa 3f 3b 6c d0 3f
       0.44902962 -0.5819136 1.9575357 1.6283029
000150 81 53 f4 bd ad ea 15 3f 4a 31 5b 3f eb ab 7b 3f
       -0.119299896 0.5856121 0.85622084 0.983092
000160 5d f6 03 40 55 d0 47 bf 50 72 be 3f 89 d3 30 be
       2.0619118 -0.78052264 1.4878635 -0.17268194
000170 0f a0 09 3f 0f 0d 6d be 38 c9 cf 3e 7b ea 8b bf
       0.53759855 -0.23149513 0.40583205 -1.0930933
000180 44 c9 c0 bf c6 61 c0 bf 5e 04 5c 3f 9e 2e 8b be
       -1.5061421 -1.5029838 0.85944164 -0.27184004
000190 2b 94 cf bb b7 8c d8 3e 60 66 1c 3c c9 56 92 bf
       -0.0063348017 0.42294857 0.0095458925 -1.1432735
0001a0 5c 77 d3 bf c9 47 11 3f a8 55 c3 3d ee eb 7f bf
       -1.65208 0.5675016 0.09537822 -0.99969375
0001b0 e2 fb 4c 3f 0b ff 4d bf 77 d7 f2 3e c0 ad a4 bf
       0.8007184 -0.8046729 0.47430012 -1.2865524
0001c0 18 e5 f9 be 2e d1 5e 3f 52 4d 33 bf 4e 73 a8 bf
       -0.48807597 0.8703793 -0.70039856 -1.3160188
0001d0 9d 32 ac bf b1 f6 18 c0 2d 1f 8e bf 11 08 b8 bf
       -1.3452946 -2.3900568 -1.1103264 -1.4377462
0001e0 d0 de b9 3e 1c 10 97 be a7 0a ed be db 2e 18 3f
       0.36302805 -0.29504478 -0.4629719 0.59446496
0001f0 16 dd 79 be 1a 29 78 3f ca 20 64 3f 89 1c 02 40
       -0.24400744 0.96937716 0.8911253 2.0329916
000200 d3 f7 bf 3f 0a 37 51 be 75 a2 26 3f f0 d6 ec 3e
       1.4997505 -0.20431152 0.6509164 0.46257734
000210 3a ce 3b 3f d4 74 65 3f 76 43 4b 3d 42 22 60 3e
       0.7336155 0.8963139 0.049624883 0.21888068
000220 14 43 dd 3e fd 6b 84 3f 21 ed 78 3f ce 6e 6f 3f
       0.4321524 1.0345455 0.9723683 0.9352845
000230 1b cc b6 3f 37 53 ee be bb 6b 6e 3e 19 1f d1 bf
       1.4281038 -0.46547863 0.23283283 -1.6337615
000240 40 b5 a8 bf 09 4f da bf 40 46 3b 3f 58 4d ee be
       -1.3180313 -1.705537 0.7315407 -0.46543384
000250 a6 7b a9 3e 71 4b a3 3b e9 70 09 40 10 de 2d bf
       0.3310215 0.0049833586 2.1475165 -0.67916965
000260 85 c6 24 3e 15 b2 46 be 1b 8f 46 3f bb 67 a9 3f
       0.16091354 -0.1940387 0.7756211 1.3234781
000270 70 6f 59 3f cb 76 97 3f 2c 86 52 3f 29 0d 9e be
       0.84935665 1.1833128 0.8223598 -0.30869415
000280 34 9c e8 3d 32 e3 67 be fb 67 b3 bd fb ac a5 3e
       0.113579184 -0.22645262 -0.08760067 0.32358536
000290 ae 14 d4 bf 49 58 18 bf 7c 5c 50 be b0 00 2c bf
       -1.6568811 -0.5950971 -0.2034778 -0.6718855
0002a0 0b 98 1e 3f 51 32 43 40 11 bf 02 be 18 85 bd be
       0.6195075 3.049946 -0.12768199 -0.37015605
0002b0 96 ac c9 3f 04 8b 11 3f 51 d2 57 3e 0e 8b 2b 3f
       1.5755794 0.56852746 0.21076323 0.67009056
0002c0 a5 7f 99 bc 97 42 68 be ca 8c 9c 3e f4 a8 d7 3f
       -0.018737623 -0.22681652 0.30576164 1.6848435
0002d0 2e 83 cf 3f 3f a2 ff 3f b2 96 72 be ab 05 83 bf
       1.6211908 1.9971389 -0.23690298 -1.0236105
0002e0 6a 21 17 bf 8e e7 d4 3d 94 34 e4 be a2 25 74 3e
       -0.5903536 0.10395728 -0.44571364 0.23842481
0002f0 58 f2 1a 3e 98 1e 01 c0 97 3b 02 bf 27 11 84 bf
       0.1513151 -2.0174923 -0.50872177 -1.0317734
000300 b4 0f 03 3e 7a 60 7d 3d 9e ae a7 bf d3 98 03 bf
       0.12798959 0.061859585 -1.3100164 -0.51405066
000310 63 48 ad bf 26 4c 1f bf eb bb d9 bf 70 7b 00 3f
       -1.3537716 -0.6222557 -1.7010473 0.5018835
000320 38 d5 b1 3c 64 52 88 3c ee 17 de 3f ef 92 d2 be
       0.021708116 0.01664085 1.7351053 -0.41127726
000330 f4 08 db be 2c f7 d5 bf f2 c4 d1 bf ee 58 09 3e
       -0.42780268 -1.6716056 -1.6388228 0.1341283
000340 ef ed c0 be d8 50 06 3f a3 65 64 bf 6d 36 d0 bf
       -0.3768153 0.5246711 -0.89217585 -1.626661
000350 b0 49 b8 be 89 fd 8e 3f 0c b9 48 3f 39 a8 6e 3f
       -0.3599372 1.1171123 0.7840736 0.9322544
000360 33 a3 5b 3b b7 65 e0 3e e4 eb 88 3e 6d d7 14 3f
       0.0033514022 0.43827602 0.2674247 0.58141214
000370 3d 95 23 c0 40 18 0d 3f 5c b3 99 3f c5 20 b3 3e
       -2.5559838 0.5511513 1.2007861 0.3498594
000380 c1 f0 64 3f 7c da 41 bf 80 e1 b4 3e d0 b3 92 bf
       0.8942986 -0.75724006 0.35328293 -1.1461124
000390 ad e6 b9 bf 17 01 ab bf d1 85 5e 3e 23 12 45 be
       -1.4523522 -1.3359708 0.21730734 -0.192452
0003a0 cf 95 70 3f 07 72 09 3f 32 10 42 3e 59 9f 89 3f
       0.9397859 0.53689617 0.1895149 1.0751754
0003b0 24 73 e7 bf 5d 85 a6 3f a6 03 3a 3d 30 aa 47 bf
       -1.8082013 1.3009449 0.045413636 -0.7799406
0003c0 7c ca 54 bf 37 d5 39 bf 03 fd 9c be 72 1a a7 3d
       -0.83121467 -0.72590965 -0.30661783 0.08159341
0003d0 fd b5 c4 3f d7 e2 86 bd c3 85 c8 bf cf 6d 19 3f
       1.5368038 -0.06586235 -1.5665821 0.5993318
0003e0 37 eb 6d 3f a9 90 11 bf 6e 09 fa be f2 f6 83 3f
       0.92937034 -0.5686136 -0.4883532 1.0309737
0003f0 c5 62 e3 3f 5c e7 ef 3f 04 80 c3 3d 9d 9e 70 3f
       1.7764517 1.874248 0.095459014 0.93992025

concat_embedder.code_emb_module.convs.0.bias f4 [64]
000000 04 5a 02 b9 54 cf 29 b8 88 e8 ac b9 be 07 eb 37
       -0.000124313 -4.048583e-05 -0.00032979646 2.8017788e-05
000010 0e 95 01 38 4c 32 86 39 3c b9 89 b9 c7 71 32 38
       3.0894815e-05 0.00025595946 -0.00026268687 4.254447e-05
000020 48 65 62 38 e0 a4 47 39 44 66 9d 39 b0 ed b7 38
       5.3976924e-05 0.0001903954 0.00030021567 8.770393e-05
000030 c8 24 98 b9 03 3e 00 ba 8e 82 d2 39 25 0a 1e b8
       -0.00029019103 -0.0004892053 0.00040151592 -3.7679583e-05
000040 bc 75 01 ba 8b 0c 75 b9 87 25 ad b9 9c 85 c4 b8
       -0.0004938503 -0.00023369693 -0.0003302509 -9.370895e-05
000050 7e 8c b5 b9 9a cd e1 39 17 fa 19 39 44 c1 14 38
       -0.00034627685 0.0004306853 0.00014684383 3.5465942e-05
000060 c1 19 a7 38 1f f3 cc b9 fb 2e 28 b9 10 99 17 3a
       7.9679776e-05 -0.0003909105 -0.0001603923 0.0005783001
000070 f2 d0 d5 38 0f 99 18 b9 6e 38 95 38 a6 b3 51 37
       0.000101955506 -0.00014552868 7.1153845e-05 1.2499198e-05
000080 40 c1 ee 34 c6 c8 b1 b8 6e 8c 69 b9 28 6a 27 3a
       4.4471562e-07 -8.477415e-05 -0.00022272926 0.0006386363
000090 b1 79 1c ba 53 da 8d b8 c7 cf 53 39 37 de 01 ba
       -0.0005969061 -6.76407e-05 0.00020199931 -0.0004954072
0000a0 67 28 1e 39 d5 6d 89 b9 09 97 cd 39 af f9 1c b9
       0.00015083105 -0.00026212508 0.00039213177 -0.00014970334
0000b0 b9 1b 32 39 05 92 8c 39 5f e0 fe 38 25 14 a3 b7
       0.0001698573 0.00026811674 0.00012153456 -1.9440495e-05
0000c0 f2 f0 42 39 2d ee 06 b9 73 8e ae b9 27 ef e2 b9
       0.00018591041 -0.00012867963 -0.00033294 -0.00043284261
0000d0 31 34 53 b8 06 b6 79 b9 aa 3d 89 b9 b6 79 20 b9
       -5.0354927e-05 -0.000238143 -0.0002617662 -0.0001530413
0000e0 b8 19 13 39 80 11 6c 39 ca a8 30 b8 a2 91 68 39
       0.00014028593 0.00022513233 -4.2118867e-05 0.00022179497
0000f0 56 2c d8 39 23 a9 65 39 90 0a 8a 39 c6 8c 09 3a
       0.00041231763 0.0002190215 0.0002632928 0.0005247112

concat_embedder.code_emb_module.convs.0.lin.weight f4 [64, 32]
000000 c2 c4 6b 3d 33 d5 0f bd 52 26 19 be ba b7 9b 3d
       0.05756069 -0.035115432 -0.14956024 0.076034024
000010 69 14 72 3e 06 19 ad bc 6e 59 0f 3d 1d fd aa 3d
       0.23640598 -0.021130096 0.034997396 0.08349059
000020 b8 fe ac 3d 67 79 50 3e c9 84 3a be 35 79 b9 3d
       0.08447021 0.20358811 -0.18214716 0.090563215
000030 a6 d7 7c bd a2 78 73 3e 0a 79 e5 3c e7 2a 31 3e
       -0.061729096 0.23776487 0.028011817 0.17301522
000040 21 49 51 be a4 02 1b be f1 06 63 3e 43 a1 47 3e
       -0.20438053 -0.15137726 0.22170617 0.1949511
000050 03 b7 58 3e 01 87 04 be ca 1a 6f bd bd 1e 2c 3e
       0.21163563 -0.12942125 -0.058375157 0.168086
000060 28 46 c1 3c 04 a5 5a 3e b3 5d da bd 43 99 9b 3d
       0.023593023 0.21352011 -0.10662403 0.07597592
000070 ee 9c 5c 3c ad b1 de 3d 52 e4 53 bc 38 5b 73 3e
       0.013465149 0.10873733 -0.012932854 0.23765266
000080 fa df 64 be 36 fe 51 be 9f a6 69 be 43 b6 cb 3a
       -0.22351065 -0.2050713 -0.22817467 0.0015541989
000090 e4 90 d5 3c 40 b3 17 bc c9 a6 e9 3d cd 0a 35 3d
       0.026070066 -0.009259045 0.11408765 0.044199754
0000a0 92 fb 50 bd e7 77 8b bd 62 e8 fc bd f8 e9 2e be
       -0.051021166 -0.06809979 -0.12349011 -0.1708144
0000b0 10 c5 93 bd e9 3c 6d 3e 98 fc 6f be a9 d0 2d 3e
       -0.07215321 0.23167767 -0.234362 0.16974129
0000c0 1e 9f 3f 3e 48 34 31 3c cd 33 f1 3d c8 d8 25 3e
       0.18713042 0.0108156875 0.11777458 0.16195977
0000d0 da f1 2b 3b 0f 0e 64 be 2f ff 4e 3e 4f ea 78 3e
       0.0026236684 -0.22270988 0.20214532 0.24308132
0000e0 f4 ad 34 3e d0 57 61 be c1 58 81 3d f2 e6 76 3e
       0.17644483 -0.22006154 0.063157566 0.24111536
0000f0 0a c7 3c be 67 3f 84 3d 7f 41 3a be de 12 a2 bb
       -0.18435302 0.064574055 -0.18189047 -0.004946097
000100 92 1e 1a 3e 38 e9 3c 3e b5 77 d0 3d 44 1b 17 3e
       0.15050724 0.18448341 0.10179082 0.14756495
000110 29 a8 1e 3e 01 5c 47 be 63 50 5e 3c 42 57 41 bd
       0.15493836 -0.1946869 0.01356897 -0.047202356
000120 be 4a 2d 3e 1e 32 c4 bd 7c 6e 55 be 4e 37 27 3e
       0.16923043 -0.095798716 -0.20842928 0.16329691
000130 79 e1 cb bd 35 c4 f9 3c d5 3c 31 3d e9 c1 36 3e
       -0.09955115 0.030489067 0.043270905 0.17847408
000140 8a c2 6c 3e 47 76 6b 3e 2a 7d f8 3d 99 9d 1e 3e
       0.23121086 0.22994338 0.12133248 0.15489806
000150 6c 10 c0 bd 5a 34 5f bd 13 a4 b0 3d d0 79 3b be
       -0.09378132 -0.054493286 0.08625045 -0.18308187
000160 2e 86 b1 bb 47 7d 4d 3e 2b d8 11 be 45 e3 bf bd
       -0.005417607 0.20067321 -0.14242618 -0.0936952
000170 9c f8 10 be 1b d7 15 3e e2 8c 14 3e f7 53 e0 3d
       -0.14157337 0.14632837 0.14506868 0.10953515
000180 c6 d8 6c be bf 41 1e 3e 2c 61 7a be 16 48 fc bb
       -0.23129568 0.15454768 -0.2445113 -0.007699023
000190 bc 06 74 3e 21 70 27 3d c4 1a c6 bc ae e5 e5 3d
       0.23830694 0.04087842 -0.024182685 0.112254485
0001a0 9a 8a 6b be 08 85 e2 3c 99 7e 13 3e 87 fb 4c bd
       -0.23002091 0.027651325 0.14403762 -0.050044563
0001b0 92 6d cb bc be d2 44 3d eb e2 24 bd be ba a6 bd
       -0.02483252 0.048052542 -0.04025547 -0.08141087
0001c0 1b 5d f1 bd 5f d5 fe 3d fb d7 c0 bd b1 fb 05 be
       -0.117853366 0.12443041 -0.09416195 -0.13084294
0001d0 0d 30 f5 3d ee 61 2e be e9 38 63 be dd cb 30 3b
       0.119720556 -0.17029545 -0.22189678 0.002697698
0001e0 31 f3 29 be 8a 40 23 be 76 5c b2 3c af b7 c4 bd
       -0.16596676 -0.15942588 0.021772604 -0.09605347
0001f0 91 78 52 3e c8 6f 4e be 3b 64 15 be 81 17 ec bd
       0.20553805 -0.20159829 -0.14589016 -0.115279205
000200 9d 32 5b be ff 13 60 3e 8a 36 05 3e 7e af 59 be
       -0.21406026 0.21882628 0.13009086 -0.21258351
000210 ab 75 85 bd 30 8e 76 be 53 24 59 3e bd dd 4b 3e
       -0.06516584 -0.24077678 0.21205263 0.19908805
000220 ab 0a 1c 3d 86 8e 51 be c7 ba 4a be 38 97 99 bd
       0.03809611 -0.20464525 -0.19797812 -0.07499546
000230 cf a3 27 3c 6c 1a 58 be 46 fb 2e 3e 36 f2 17 3e
       0.010231926 -0.21103829 0.1708804 0.1483849
000240 a0 2d 30 3e 0a 1a cc bd 00 d9 48 3e b7 ca 6c be
       0.17204905 -0.09965904 0.19614029 -0.23124205
000250 8e b6 8b bd d2 9e 03 3e 37 f9 f8 3b 7b b8 65 be
       -0.06821929 0.12853554 0.007598068 -0.22433655
000260 7a 6f 4e 3e a5 7a dd 3d 0f 2a 40 be 20 cd 3b be
       0.20159712 0.10814408 -0.18766044 -0.18339968
000270 63 bc 07 bc 24 a8 4e 3e 19 4f 79 3e b2 eb 62 be
       -0.008284661 0.20181328 0.2434658 -0.22160223
000280 63 ae a9 bd 72 41 6e be 23 af 42 be ab 9b 06 3e
       -0.08285215 -0.23267153 -0.19012122 0.1314532
000290 ca ae 3e be 8b a7 6a 3d bf 81 81 bb 88 ab 74 be
       -0.18621364 0.057288688 -0.0039522345 -0.23893559
0002a0 29 80 15 be 42 ad 58 3d d8 01 a3 3d 5c 77 c9 3c
       -0.1459967 0.052899607 0.07959336 0.024593048
0002b0 16 51 e1 3d a7 61 40 3e 79 d0 13 3e a3 4a 50 be
       0.11001794 0.18787251 0.14434995 -0.20340972
0002c0 30 af fa bd cb d7 ec bd 4f d5 93 3d 25 05 c9 bc
       -0.122404456 -0.11564597 0.0721842 -0.024538586
0002d0 a4 71 6c be 78 21 80 3e b1 cf 25 be d0 b9 cd bd
       -0.23090225 0.25025535 -0.16192509 -0.100452065
0002e0 ff 85 14 3d 67 58 1c 3e 17 9b 24 bd c4 b6 f1 3d
       0.0362606 0.15268098 -0.040186968 0.11802438
0002f0 4c b0 6b bc a7 85 d0 3c 11 1f f0 bb 16 22 d7 3d
       -0.014385294 0.025454355 -0.007327922 0.10504548
000300 b5 9c 4d 3e eb d7 19 3e d9 b3 0f be d8 ca f8 bd
       0.2007931 0.15023772 -0.1403345 -0.121480644
000310 05 98 56 3e 06 3f 95 bc 98 ba 10 bc 83 f9 df bd
       0.20956428 -0.018218528 -0.00883355 -0.109362625
000320 38 fc 63 be 06 7c 40 3e f7 2e 10 be 75 49 0b be
       -0.22264183 0.18797311 -0.14080416 -0.1360224
000330 c2 24 c6 bd 96 8b e0 bd 69 5d c8 3d 6f 81 57 3e
       -0.0967498 -0.10964124 0.097834416 0.21045469
000340 78 d0 dd 3d 49 66 4f 3e ad f2 99 bd 3f 43 a5 3b
       0.10830778 0.20253862 -0.0751699 0.0050434167
000350 fc 56 16 3e 94 73 05 3e 8d 2f a7 3d 8a 5e 55 3c
       0.1468162 0.13032371 0.081633665 0.013023028
000360 9d a3 a3 bd 66 32 9b bd 9c 14 61 3e 6d 4f 01 3e
       -0.07990191 -0.07577972 0.21980518 0.12627955
000370 70 b8 23 3e 73 a6 b0 3c f3 73 19 3e 15 43 b9 3c
       0.15988326 0.021563744 0.14985637 0.022614995
000380 62 01 1c 3d 92 89 2b 3e 3c d3 15 3e 84 39 fd 3c
       0.038087256 0.16751698 0.14631361 0.030911215
000390 f8 08 41 3e a2 8d 73 3e a3 e8 c5 3d f3 3e 6e be
       0.18851078 0.23784497 0.096635126 -0.232662
0003a0 cd 43 71 3e fa f1 c6 bd cc 97 56 3e 86 78 67 be
       0.2356102 -0.09714122 0.20956343 -0.2260457
0003b0 85 3a 2a 3e 08 31 38 bc ca 47 52 3e 9a 20 02 3e
       0.16623886 -0.011242159 0.20535198 0.12707749
0003c0 bb c8 32 be 7a c6 35 3d 40 01 75 3e 66 01 78 be
       -0.17459385 0.044378735 0.23926258 -0.24219283
0003d0 eb 5f 02 be 26 61 de 3d a3 e4 7d be 83 ed 12 3e
       -0.12731902 0.10858373 -0.24794249 0.14348416
0003e0 0c d5 2e be ca 0b a5 3d 89 7b 03 3e 1d 3c 51 3e
       -0.17073458 0.08058889 0.12840094 0.20433088
0003f0 d9 e0 28 be a8 75 69 3e fe 7d a0 bd 76 6d a0 bd
       -0.16492023 0.22798789 -0.07836531 -0.07833378

concat_embedder.code_emb_module.convs.1.bias f4 [48]
000000 5e dc 3c b9 b6 ce 35 3a 92 f8 c4 b8 bb 47 34 39
       -0.0001801117 0.00069354044 -9.392308e-05 0.0001719286
000010 6c 86 73 b9 e7 21 b2 b8 d2 72 04 3a 07 77 4a b9
       -0.00023224362 -8.494016e-05 0.000505251 -0.00019308562
000020 1b 53 a2 39 17 7a 9b b9 40 54 dd 35 43 e6 81 b9
       0.00030960966 -0.00029654868 1.6490303e-06 -0.00024776356
000030 2d 1f 7c 38 b4 2f f0 38 ac 88 1b b9 e1 09 0c ba
       6.0110517e-05 0.00011452977 -0.00014832866 -0.0005342048
000040 bd 11 ad 37 98 b9 c5 b7 9e 4c dd 38 7b 29 de 38
       2.0631467e-05 -2.3570654e-05 0.00010552372 0.00010593511
000050 a3 f4 8e 39 78 69 fa b8 b1 ff 38 38 22 e7 b8 39
       0.0002726662 -0.00011940574 4.410715e-05 0.00035267422
000060 66 58 cf b9 92 8e 1f 3a 86 48 9a b9 51 c1 45 b9
       -0.0003954798 0.0006086613 -0.00029427203 -0.000188594
000070 5e aa 14 b8 be 97 c8 36 47 d6 d1 38 de d8 a0 38
       -3.5444617e-05 5.9781296e-06 0.00010005809 7.669789e-05
000080 86 3e a9 b9 40 ba 18 ba b7 ab 30 3a 9b 39 48 b9
       -0.00032280775 -0.0005826093 0.00067394547 -0.00019094946
000090 28 ef 2d b9 82 a1 42 ba b6 62 bc b9 e6 cb 0c ba
       -0.00016587658 -0.0007424579 -0.000359317 -0.00053709594
0000a0 f3 5a b2 b9 8b 9b e2 b9 2d bf b7 b9 4e 8d 15 ba
       -0.00034018568 -0.00043221968 -0.00035046917 -0.0005704955
0000b0 f1 ec 08 ba 28 f8 4b 39 54 10 bd 38 80 da c9 b8
       -0.00052232953 0.00019452034 9.015264e-05 -9.625126e-05

concat_embedder.code_emb_module.convs.1.lin.weight f4 [48, 64]
000000 09 39 d6 bd 79 a6 33 be 96 3b fe bd 70 22 63 be
       -0.10460097 -0.17543973 -0.12413709 -0.22181106
000010 6b c9 ae 3d 3f f2 56 be 71 50 d2 3d 3e 4d 40 be
       0.08534511 -0.20990847 0.10269249 -0.18779466
000020 b3 59 c6 3d 1c 4f 26 3e 6a c2 4a 3d 9e 0f 2a be
       0.096850775 0.16241115 0.049501814 -0.1660752
000030 2e 3f 3c bd d6 e5 93 bc a4 99 0c bd a4 f7 41 be
       -0.04595869 -0.01805393 -0.03432621 -0.18942124
000040 c5 35 35 bd f4 7b 9d bd 62 cf d6 bd 21 95 16 bd
       -0.04424073 -0.07689658 -0.10488774 -0.036763314
000050 a4 02 10 3e 93 f3 c8 bc 32 ab 61 bd 34 2b 0f 3e
       0.14063507 -0.024530208 -0.055094905 0.13981324
000060 36 28 2b 3e 4e 7f f5 bc 9f 4a e4 3d a7 ca 9e bc
       0.16714558 -0.02996793 0.11147045 -0.019383742
000070 eb ca 54 be 1b 0a 36 be 70 f2 79 3d 6b 99 7a bd
       -0.20780532 -0.17777292 0.061022222 -0.061181467
000080 bd 05 01 3d 38 e2 f5 bd 32 15 02 3e a3 0a ea 3b
       0.031499613 -0.120060384 0.12703398 0.0071423813
000090 ee 24 45 be 8a 12 6a be 09 93 88 bd 3e fc 92 bd
       -0.19252369 -0.22858635 -0.0666867 -0.07177018
0000a0 2e c6 4f be 1c c6 e6 3d eb 3e 20 3e a7 ac 03 3e
       -0.20290443 0.11268255 0.15649001 0.1285883
0000b0 59 17 fe 3c d0 22 0d bd a9 3f 5a be 85 14 18 3d
       0.031016992 -0.034457028 -0.21313347 0.037128944
0000c0 cd 64 4a 3e 44 81 85 3d ce b6 5c 3e 21 33 82 bd
       0.19765015 0.06518796 0.2155411 -0.06357408
0000d0 20 3c 56 be 68 ba c4 3d 67 1b 10 be db 83 ea 3d
       -0.20921373 0.09605867 -0.14072953 0.11450931
0000e0 be 6b 52 3e 61 cd 1f be 6d ff 06 be bc eb 63 3e
       0.20548913 -0.1560569 -0.13183375 0.22257894
0000f0 16 fd 4f be 9d 69 8e 3d 24 a1 db 3d 08 07 60 bd
       -0.20311388 0.06953738 0.107240945 -0.054694206
000100 1b 5d 33 bd 84 48 62 be 51 0e 2f be 7d 10 35 3e
       -0.043789964 -0.22097975 -0.17095305 0.17682071
000110 84 84 13 3e b1 24 51 3e 2e b8 11 bc dd 3d fe bd
       0.1440602 0.20424153 -0.0088940095 -0.12414143
000120 4f 2f fc ba 44 5d dd 3d 51 96 44 be c8 77 26 be
       -0.0019240173 0.10808805 -0.19197966 -0.1625663
000130 99 ec 39 3e d4 fe ba bd 7e 59 ef 3d 9a a2 3c be
       0.18156661 -0.09130636 0.11686991 -0.18421403
000140 08 5c 0c be 29 b6 44 be 45 70 02 bb 80 1f 5d be
       -0.13706982 -0.19210114 -0.0019903344 -0.21594048
000150 0e 66 4a be 1a 6f 2c 3e b5 5b f8 3d 81 3f b6 3d
       -0.19765493 0.16839257 0.12126867 0.08898831
000160 70 40 01 be b4 99 38 bd 66 58 f1 3d c1 25 1a 3e
       -0.12622237 -0.045068458 0.11784439 0.15053464
000170 01 b2 38 be 0c fc 9a 3d 4a ae a9 3d 05 43 6c be
       -0.18036653 0.075676054 0.08285196 -0.23072441
000180 be 47 41 be 10 89 46 3e 17 3f 69 be 2d a3 0a 3e
       -0.18875024 0.19388223 -0.22777973 0.13538809
000190 f1 87 45 be 8b 60 2a 3e 23 67 e9 3d 76 3f 2b 3e
       -0.19290139 0.1663839 0.11396625 0.16723427
0001a0 6d 26 18 3e 57 44 49 be c6 da 7a bd bd d7 53 3d
       0.14858408 -0.19654976 -0.061243795 0.051719416
0001b0 9c ea 5f 3e 48 5b 10 3b 41 cb ff bc 31 89 27 3c
       0.2186684 0.0022027064 -0.031224849 0.01022558
0001c0 2a 98 4a be 1b 19 56 be e2 4c 5f 3d 90 28 2c be
       -0.19784608 -0.20908014 0.05451668 -0.16812348
0001d0 9a e6 3e be 7c 27 2f be 7b be 47 bd a5 24 50 3e
       -0.18642655 -0.17104906 -0.04876564 0.20326479
0001e0 69 69 b7 3d b7 43 46 3e d9 38 64 3a 42 17 e9 bd
       0.08955652 0.19361769 0.0008705981 -0.11381389
0001f0 1f 2d 32 3d 86 f9 b7 3c ca 12 3c bd ff fb 27 3d
       0.043500062 0.02245785 -0.045916356 0.041011807
000200 4e 4c ed 3d fa 8d 2d be e3 d4 37 3e 85 73 df bd
       0.115868196 -0.16948691 0.17952304 -0.109107055
000210 b4 b1 7d 3d c1 6b e8 bd 78 c6 a7 3d 57 20 b7 3d
       0.06193705 -0.113486774 0.08192152 0.08941715
000220 ca bb 97 3d 50 1c 4a 3d 1a 7e 62 be 75 d9 56 3d
       0.07408865 0.049343407 -0.22118416 0.052453477
000230 95 e9 39 bd 7e 38 26 3e 5a d4 94 bd 5c e0 03 3d
       -0.045388777 0.16232488 -0.07267065 0.032196388
000240 7e dc 52 bd 05 c0 d6 bd b4 48 07 3e da b6 29 bd
       -0.05147981 -0.104858436 0.13211328 -0.041434146
000250 c1 cf 90 bd 2b a8 e6 3b 69 6d aa bc ce 51 f1 bd
       -0.07070876 0.00703909 -0.020804124 -0.11783181
000260 09 0b c6 bd 9a 6f 46 be fb d4 4b 3e 21 30 a4 3d
       -0.096700735 -0.1937851 0.19905464 0.08016992
000270 eb 95 2c be cf aa f3 3c 4d ef 4a 3e 7f a1 44 be
       -0.16854064 0.029744534 0.19817849 -0.19202231
000280 97 59 33 be 25 76 f8 3d 48 c0 14 be c1 81 38 3d
       -0.17514645 0.12131909 -0.14526474 0.045045618
000290 df f4 00 3e 3d 89 19 be a7 56 28 be e7 11 48 3e
       0.12593411 -0.14993758 -0.16439305 0.19538079
0002a0 82 02 a8 bc a4 92 43 3e 56 ef 28 3d 6b 1e f6 3c
       -0.020509008 0.19098908 0.041243874 0.030043801
0002b0 32 dc 7b bc 64 fe 62 3d c5 d3 bb bd a7 ee 04 3e
       -0.015372323 0.055418387 -0.09171251 0.12981664
0002c0 98 54 7b 3d a6 4e af bd ee 17 a6 bd 02 ea 99 bd
       0.06135997 -0.08559923 -0.08110033 -0.075153366
0002d0 b2 bd d7 bd b0 23 69 3e c7 62 d5 3d 70 72 66 3e
       -0.105342284 0.2276752 0.10419231 0.22504592
0002e0 c6 c0 8b 3d 49 51 b2 bd ce f1 4e 3e 03 01 ed 3c
       0.06823878 -0.0870691 0.20209429 0.028931146
0002f0 02 4e d1 bd fa 06 90 3c 30 99 7f 3c 68 50 2c 3e
       -0.10219957 0.017581452 0.015600488 0.16827548
000300 e7 38 a1 bd 2f 23 81 bd eb 46 34 3d b5 7a 85 3d
       -0.078721814 -0.06305539 0.044012945 0.06517545
000310 21 51 14 be e7 10 d5 3d cc 22 07 3d 31 92 da 3d
       -0.14484073 0.104036145 0.03299217 0.10672415
000320 dd d4 7f bd fb ee a9 bd f5 39 ec bd 97 7e ab 3d
       -0.06245886 -0.08297535 -0.11534492 0.083737545
000330 9c c2 9d 3d 7f 52 40 be 95 04 98 3d 46 b3 19 be
       0.077031344 -0.1878147 0.07422749 -0.15009794
000340 d9 ac 31 3e 08 23 2f be 01 37 5c 3e ac dd 45 3e
       0.17351092 -0.17103207 0.21505357 0.19322842
000350 04 db 20 3e 74 9f 3d be b7 50 14 be 78 51 44 3e
       0.15708548 -0.18517858 -0.14483915 0.19171703
000360 16 c0 19 be d2 50 3c 3e 2d 14 dd bd d7 2e df b9
       -0.15014681 0.18390206 -0.10794864 -0.00042568773
000370 65 ea 2a 3e 84 7b 60 be 4b 8a 6c be a5 a9 44 3e
       0.16690977 -0.21922117 -0.2309963 0.19205339
000380 e6 7d b3 3d a4 c5 01 3e 95 6b 0f be 08 b8 3a 3e
       0.087642476 0.1267305 -0.14005883 0.18234265
000390 72 4c e5 bd 9f f5 7a bc 8d ae 80 3d 42 79 15 be
       -0.111962214 -0.01531735 0.06283293 -0.14597037
0003a0 76 22 cc bd 3c cc 63 bc a3 23 39 3e cc aa cc 3d
       -0.099675104 -0.013903674 0.1808 0.099935144
0003b0 e1 37 82 bd c9 33 f8 bd a4 14 3c 3e 3d 4b 94 bd
       -0.06358314 -0.12119252 0.18367249 -0.07240913
0003c0 aa c9 65 3c 10 12 ac bc 68 80 14 be b3 ee 09 3e
       0.014025131 -0.021004707 -0.14502108 0.13469963
0003d0 dc 11 41 3e 7a df dc 3d df cd 55 be fb 1b ac 39
       0.18854469 0.10784812 -0.20879315 0.00032827244
0003e0 f5 df 3e 3e e9 0e f3 3d 43 6c 68 be 3f 82 25 be
       0.1864012 0.11868078 -0.22697549 -0.16162966
0003f0 a6 b8 6e 3d d3 28 2a 3e a3 1a 6b 3e fd 21 82 3d
       0.058281563 0.16617136 0.2295938 0.06354139

concat_embedder.code_emb.node_type_embedding.weight f4 [100, 32]
000000 4e 5e 1e 3f cc 22 88 3f 7d 98 ad 3f a6 37 a6 3f
       0.6186265 1.0635619 1.3562161 1.2985733
000010 30 b2 8a 3f 51 5d 32 bf d8 93 9e bf d3 0e 13 bf
       1.0835629 -0.6967364 -1.2388868 -0.57444495
000020 3f fc 65 be b7 80 be bf 39 51 a1 3e fc cf 86 3d
       -0.22459505 -1.4883031 0.3150728 0.065826386
000030 41 af 64 3e 20 5f 48 3f a1 b7 87 3f 70 31 be 3e
       0.22332479 0.7827015 1.0602914 0.37147093
000040 47 4b 28 3f f2 15 66 3f 91 59 20 3f 2a d0 e0 bf
       0.65739864 0.89877236 0.6263667 -1.7563527
000050 dd cb 90 3f 43 34 ae be e5 4a 89 be a6 bc 6b 3f
       1.1312214 -0.34024248 -0.26814952 0.9208473
000060 74 e2 50 bf 6a d8 fa be 5f c8 ba bf 60 d8 ab bd
       -0.8159554 -0.48993236 -1.4592398 -0.0839088
000070 d4 7b 63 3f 2a 65 0c bf 99 d9 50 bf a3 ee 98 bf
       0.8886082 -0.54841864 -0.8158203 -1.1947826
000080 45 7c 60 3e c4 09 c6 be 3d 73 96 3f 38 00 2d bf
       0.21922405 -0.38679326 1.1753918 -0.6757846
000090 c9 a4 0f 3f c1 52 1a 3e 76 cd 61 bf 0a bd 28 c0
       0.5611082 0.1507063 -0.88204134 -2.636538
0000a0 3f 0f f4 bf aa 57 85 bf d7 3f 3f bf 58 bb 85 3d
       -1.9067153 -1.0417378 -0.74706787 0.065298736
0000b0 b2 36 3e 3f bb b5 fa be 96 6b 1d c0 55 30 9c be
       0.7430221 -0.48966774 -2.4596915 -0.30505624
0000c0 38 8b 19 3f 68 a9 ec be 3e 00 c9 3e 8c 1a 80 3f
       0.59978056 -0.46222997 0.39257997 1.0008101
0000d0 16 99 84 3f 69 32 ba 3e 78 d7 59 3e ce 9f 1d 40
       1.0359218 0.36366585 0.21273601 2.4628787
0000e0 8a 04 00 bf 00 21 68 3f 5b f2 cc 3e 3f 1c 04 c0
       -0.50006926 0.90675354 0.40028653 -2.064224
0000f0 fd 15 4f bf 11 de 21 bf c3 e0 99 bf ba 62 96 be
       -0.80892926 -0.6322947 -1.2021717 -0.29372197
000100 47 4f 83 3f 37 47 2d 3f 8f 38 ae be 67 a2 aa be
       1.0258569 0.6768679 -0.34027526 -0.33327028
000110 9e 60 b5 bf 37 c9 75 3f 79 f6 a2 be fc c3 4d 3e
       -1.417011 0.96010154 -0.3182867 0.20094293
000120 e2 8c dd 3f b9 eb 3a bf aa d0 9c bf 78 99 c0 bf
       1.7308619 -0.73015934 -1.2251179 -1.5046835
000130 70 8d 92 bd 4d 4f 53 bf 97 16 7a 3e 50 53 6d 3f
       -0.07155883 -0.8254288 0.2442268 0.9270525
000140 36 e7 e5 3e 4a f8 14 bf 88 90 fa 3f 3b 6c d0 3f
       0.44902962 -0.5819136 1.9575357 1.6283029
000150 81 53 f4 bd ad ea 15 3f 4a 31 5b 3f eb ab 7b 3f
       -0.119299896 0.5856121 0.85622084 0.983092
000160 5d f6 03 40 55 d0 47 bf 50 72 be 3f 89 d3 30 be
       2.0619118 -0.78052264 1.4878635 -0.17268194
000170 0f a0 09 3f 0f 0d 6d be 38 c9 cf 3e 7b ea 8b bf
       0.53759855 -0.23149513 0.40583205 -1.0930933
000180 44 c9 c0 bf c6 61 c0 bf 5e 04 5c 3f 9e 2e 8b be
       -1.5061421 -1.5029838 0.85944164 -0.27184004
000190 2b 94 cf bb b7 8c d8 3e 60 66 1c 3c c9 56 92 bf
       -0.0063348017 0.42294857 0.0095458925 -1.1432735
0001a0 5c 77 d3 bf c9 47 11 3f a8 55 c3 3d ee eb 7f bf
       -1.65208 0.5675016 0.09537822 -0.99969375
0001b0 e2 fb 4c 3f 0b ff 4d bf 77 d7 f2 3e c0 ad a4 bf
       0.8007184 -0.8046729 0.47430012 -1.2865524
0001c0 18 e5 f9 be 2e d1 5e 3f 52 4d 33 bf 4e 73 a8 bf
       -0.48807597 0.8703793 -0.70039856 -1.3160188
0001d0 9d 32 ac bf b1 f6 18 c0 2d 1f 8e bf 11 08 b8 bf
       -1.3452946 -2.3900568 -1.1103264 -1.4377462
0001e0 d0 de b9 3e 1c 10 97 be a7 0a ed be db 2e 18 3f
       0.36302805 -0.29504478 -0.4629719 0.59446496
0001f0 16 dd 79 be 1a 29 78 3f ca 20 64 3f 89 1c 02 40
       -0.24400744 0.96937716 0.8911253 2.0329916
000200 d3 f7 bf 3f 0a 37 51 be 75 a2 26 3f f0 d6 ec 3e
       1.4997505 -0.20431152 0.6509164 0.46257734
000210 3a ce 3b 3f d4 74 65 3f 76 43 4b 3d 42 22 60 3e
       0.7336155 0.8963139 0.049624883 0.21888068
000220 14 43 dd 3e fd 6b 84 3f 21 ed 78 3f ce 6e 6f 3f
       0.4321524 1.0345455 0.9723683 0.9352845
000230 1b cc b6 3f 37 53 ee be bb 6b 6e 3e 19 1f d1 bf
       1.4281038 -0.46547863 0.23283283 -1.6337615
000240 40 b5 a8 bf 09 4f da bf 40 46 3b 3f 58 4d ee be
       -1.3180313 -1.705537 0.7315407 -0.46543384
000250 a6 7b a9 3e 71 4b a3 3b e9 70 09 40 10 de 2d bf
       0.3310215 0.0049833586 2.1475165 -0.67916965
000260 85 c6 24 3e 15 b2 46 be 1b 8f 46 3f bb 67 a9 3f
       0.16091354 -0.1940387 0.7756211 1.3234781
000270 70 6f 59 3f cb 76 97 3f 2c 86 52 3f 29 0d 9e be
       0.84935665 1.1833128 0.8223598 -0.30869415
000280 34 9c e8 3d 32 e3 67 be fb 67 b3 bd fb ac a5 3e
       0.113579184 -0.22645262 -0.08760067 0.32358536
000290 ae 14 d4 bf 49 58 18 bf 7c 5c 50 be b0 00 2c bf
       -1.6568811 -0.5950971 -0.2034778 -0.6718855
0002a0 0b 98 1e 3f 51 32 43 40 11 bf 02 be 18 85 bd be
       0.6195075 3.049946 -0.12768199 -0.37015605
0002b0 96 ac c9 3f 04 8b 11 3f 51 d2 57 3e 0e 8b 2b 3f
       1.5755794 0.56852746 0.21076323 0.67009056
0002c0 a5 7f 99 bc 97 42 68 be ca 8c 9c 3e f4 a8 d7 3f
       -0.018737623 -0.22681652 0.30576164 1.6848435
0002d0 2e 83 cf 3f 3f a2 ff 3f b2 96 72 be ab 05 83 bf
       1.6211908 1.9971389 -0.23690298 -1.0236105
0002e0 6a 21 17 bf 8e e7 d4 3d 94 34 e4 be a2 25 74 3e
       -0.5903536 0.10395728 -0.44571364 0.23842481
0002f0 58 f2 1a 3e 98 1e 01 c0 97 3b 02 bf 27 11 84 bf
       0.1513151 -2.0174923 -0.50872177 -1.0317734
000300 b4 0f 03 3e 7a 60 7d 3d 9e ae a7 bf d3 98 03 bf
       0.12798959 0.061859585 -1.3100164 -0.51405066
000310 63 48 ad bf 26 4c 1f bf eb bb d9 bf 70 7b 00 3f
       -1.3537716 -0.6222557 -1.7010473 0.5018835
000320 38 d5 b1 3c 64 52 88 3c ee 17 de 3f ef 92 d2 be
       0.021708116 0.01664085 1.7351053 -0.41127726
000330 f4 08 db be 2c f7 d5 bf f2 c4 d1 bf ee 58 09 3e
       -0.42780268 -1.6716056 -1.6388228 0.1341283
000340 ef ed c0 be d8 50 06 3f a3 65 64 bf 6d 36 d0 bf
       -0.3768153 0.5246711 -0.89217585 -1.626661
000350 b0 49 b8 be 89 fd 8e 3f 0c b9 48 3f 39 a8 6e 3f
       -0.3599372 1.1171123 0.7840736 0.9322544
000360 33 a3 5b 3b b7 65 e0 3e e4 eb 88 3e 6d d7 14 3f
       0.0033514022 0.43827602 0.2674247 0.58141214
000370 3d 95 23 c0 40 18 0d 3f 5c b3 99 3f c5 20 b3 3e
       -2.5559838 0.5511513 1.2007861 0.3498594
000380 c1 f0 64 3f 7c da 41 bf 80 e1 b4 3e d0 b3 92 bf
       0.8942986 -0.75724006 0.35328293 -1.1461124
000390 ad e6 b9 bf 17 01 ab bf d1 85 5e 3e 23 12 45 be
       -1.4523522 -1.3359708 0.21730734 -0.192452
0003a0 cf 95 70 3f 07 72 09 3f 32 10 42 3e 59 9f 89 3f
       0.9397859 0.53689617 0.1895149 1.0751754
0003b0 24 73 e7 bf 5d 85 a6 3f a6 03 3a 3d 30 aa 47 bf
       -1.8082013 1.3009449 0.045413636 -0.7799406
0003c0 7c ca 54 bf 37 d5 39 bf 03 fd 9c be 72 1a a7 3d
       -0.83121467 -0.72590965 -0.30661783 0.08159341
0003d0 fd b5 c4 3f d7 e2 86 bd c3 85 c8 bf cf 6d 19 3f
       1.5368038 -0.06586235 -1.5665821 0.5993318
0003e0 37 eb 6d 3f a9 90 11 bf 6e 09 fa be f2 f6 83 3f
       0.92937034 -0.5686136 -0.4883532 1.0309737
0003f0 c5 62 e3 3f 5c e7 ef 3f 04 80 c3 3d 9d 9e 70 3f
       1.7764517 1.874248 0.095459014 0.93992025

concat_embedder.code_emb.convs.0.bias f4 [64]
000000 04 5a 02 b9 54 cf 29 b8 88 e8 ac b9 be 07 eb 37
       -0.000124313 -4.048583e-05 -0.00032979646 2.8017788e-05
000010 0e 95 01 38 4c 32 86 39 3c b9 89 b9 c7 71 32 38
       3.0894815e-05 0.00025595946 -0.00026268687 4.254447e-05
000020 48 65 62 38 e0 a4 47 39 44 66 9d 39 b0 ed b7 38
       5.3976924e-05 0.0001903954 0.00030021567 8.770393e-05
000030 c8 24 98 b9 03 3e 00 ba 8e 82 d2 39 25 0a 1e b8
       -0.00029019103 -0.0004892053 0.00040151592 -3.7679583e-05
000040 bc 75 01 ba 8b 0c 75 b9 87 25 ad b9 9c 85 c4 b8
       -0.0004938503 -0.00023369693 -0.0003302509 -9.370895e-05
000050 7e 8c b5 b9 9a cd e1 39 17 fa 19 39 44 c1 14 38
       -0.00034627685 0.0004306853 0.00014684383 3.5465942e-05
000060 c1 19 a7 38 1f f3 cc b9 fb 2e 28 b9 10 99 17 3a
       7.9679776e-05 -0.0003909105 -0.0001603923 0.0005783001
000070 f2 d0 d5 38 0f 99 18 b9 6e 38 95 38 a6 b3 51 37
       0.000101955506 -0.00014552868 7.1153845e-05 1.2499198e-05
000080 40 c1 ee 34 c6 c8 b1 b8 6e 8c 69 b9 28 6a 27 3a
       4.4471562e-07 -8.477415e-05 -0.00022272926 0.0006386363
000090 b1 79 1c ba 53 da 8d b8 c7 cf 53 39 37 de 01 ba
       -0.0005969061 -6.76407e-05 0.00020199931 -0.0004954072
0000a0 67 28 1e 39 d5 6d 89 b9 09 97 cd 39 af f9 1c b9
       0.00015083105 -0.00026212508 0.00039213177 -0.00014970334
0000b0 b9 1b 32 39 05 92 8c 39 5f e0 fe 38 25 14 a3 b7
       0.0001698573 0.00026811674 0.00012153456 -1.9440495e-05
0000c0 f2 f0 42 39 2d ee 06 b9 73 8e ae b9 27 ef e2 b9
       0.00018591041 -0.00012867963 -0.00033294 -0.00043284261
0000d0 31 34 53 b8 06 b6 79 b9 aa 3d 89 b9 b6 79 20 b9
       -5.0354927e-05 -0.000238143 -0.0002617662 -0.0001530413
0000e0 b8 19 13 39 80 11 6c 39 ca a8 30 b8 a2 91 68 39
       0.00014028593 0.00022513233 -4.2118867e-05 0.00022179497
0000f0 56 2c d8 39 23 a9 65 39 90 0a 8a 39 c6 8c 09 3a
       0.00041231763 0.0002190215 0.0002632928 0.0005247112

concat_embedder.code_emb.convs.0.lin.weight f4 [64, 32]
000000 c2 c4 6b 3d 33 d5 0f bd 52 26 19 be ba b7 9b 3d
       0.05756069 -0.035115432 -0.14956024 0.076034024
000010 69 14 72 3e 06 19 ad bc 6e 59 0f 3d 1d fd aa 3d
       0.23640598 -0.021130096 0.034997396 0.08349059
000020 b8 fe ac 3d 67 79 50 3e c9 84 3a be 35 79 b9 3d
       0.08447021 0.20358811 -0.18214716 0.090563215
000030 a6 d7 7c bd a2 78 73 3e 0a 79 e5 3c e7 2a 31 3e
       -0.061729096 0.23776487 0.028011817 0.17301522
000040 21 49 51 be a4 02 1b be f1 06 63 3e 43 a1 47 3e
       -0.20438053 -0.15137726 0.22170617 0.1949511
000050 03 b7 58 3e 01 87 04 be ca 1a 6f bd bd 1e 2c 3e
       0.21163563 -0.12942125 -0.058375157 0.168086
000060 28 46 c1 3c 04 a5 5a 3e b3 5d da bd 43 99 9b 3d
       0.023593023 0.21352011 -0.10662403 0.07597592
000070 ee 9c 5c 3c ad b1 de 3d 52 e4 53 bc 38 5b 73 3e
       0.013465149 0.10873733 -0.012932854 0.23765266
000080 fa df 64 be 36 fe 51 be 9f a6 69 be 43 b6 cb 3a
       -0.22351065 -0.2050713 -0.22817467 0.0015541989
000090 e4 90 d5 3c 40 b3 17 bc c9 a6 e9 3d cd 0a 35 3d
       0.026070066 -0.009259045 0.11408765 0.044199754
0000a0 92 fb 50 bd e7 77 8b bd 62 e8 fc bd f8 e9 2e be
       -0.051021166 -0.06809979 -0.12349011 -0.1708144
0000b0 10 c5 93 bd e9 3c 6d 3e 98 fc 6f be a9 d0 2d 3e
       -0.07215321 0.23167767 -0.234362 0.16974129
0000c0 1e 9f 3f 3e 48 34 31 3c cd 33 f1 3d c8 d8 25 3e
       0.18713042 0.0108156875 0.11777458 0.16195977
0000d0 da f1 2b 3b 0f 0e 64 be 2f ff 4e 3e 4f ea 78 3e
       0.0026236684 -0.22270988 0.20214532 0.24308132
0000e0 f4 ad 34 3e d0 57 61 be c1 58 81 3d f2 e6 76 3e
       0.17644483 -0.22006154 0.063157566 0.24111536
0000f0 0a c7 3c be 67 3f 84 3d 7f 41 3a be de 12 a2 bb
       -0.18435302 0.064574055 -0.18189047 -0.004946097
000100 92 1e 1a 3e 38 e9 3c 3e b5 77 d0 3d 44 1b 17 3e
       0.15050724 0.18448341 0.10179082 0.14756495
000110 29 a8 1e 3e 01 5c 47 be 63 50 5e 3c 42 57 41 bd
       0.15493836 -0.1946869 0.01356897 -0.047202356
000120 be 4a 2d 3e 1e 32 c4 bd 7c 6e 55 be 4e 37 27 3e
       0.16923043 -0.095798716 -0.20842928 0.16329691
000130 79 e1 cb bd 35 c4 f9 3c d5 3c 31 3d e9 c1 36 3e
       -0.09955115 0.030489067 0.043270905 0.17847408
000140 8a c2 6c 3e 47 76 6b 3e 2a 7d f8 3d 99 9d 1e 3e
       0.23121086 0.22994338 0.12133248 0.15489806
000150 6c 10 c0 bd 5a 34 5f bd 13 a4 b0 3d d0 79 3b be
       -0.09378132 -0.054493286 0.08625045 -0.18308187
000160 2e 86 b1 bb 47 7d 4d 3e 2b d8 11 be 45 e3 bf bd
       -0.005417607 0.20067321 -0.14242618 -0.0936952
000170 9c f8 10 be 1b d7 15 3e e2 8c 14 3e f7 53 e0 3d
       -0.14157337 0.14632837 0.14506868 0.10953515
000180 c6 d8 6c be bf 41 1e 3e 2c 61 7a be 16 48 fc bb
       -0.23129568 0.15454768 -0.2445113 -0.007699023
000190 bc 06 74 3e 21 70 27 3d c4 1a c6 bc ae e5 e5 3d
       0.23830694 0.04087842 -0.024182685 0.112254485
0001a0 9a 8a 6b be 08 85 e2 3c 99 7e 13 3e 87 fb 4c bd
       -0.23002091 0.027651325 0.14403762 -0.050044563
0001b0 92 6d cb bc be d2 44 3d eb e2 24 bd be ba a6 bd
       -0.02483252 0.048052542 -0.04025547 -0.08141087
0001c0 1b 5d f1 bd 5f d5 fe 3d fb d7 c0 bd b1 fb 05 be
       -0.117853366 0.12443041 -0.09416195 -0.13084294
0001d0 0d 30 f5 3d ee 61 2e be e9 38 63 be dd cb 30 3b
       0.119720556 -0.17029545 -0.22189678 0.002697698
0001e0 31 f3 29 be 8a 40 23 be 76 5c b2 3c af b7 c4 bd
       -0.16596676 -0.15942588 0.021772604 -0.09605347
0001f0 91 78 52 3e c8 6f 4e be 3b 64 15 be 81 17 ec bd
       0.20553805 -0.20159829 -0.14589016 -0.115279205
000200 9d 32 5b be ff 13 60 3e 8a 36 05 3e 7e af 59 be
       -0.21406026 0.21882628 0.13009086 -0.21258351
000210 ab 75 85 bd 30 8e 76 be 53 24 59 3e bd dd 4b 3e
       -0.06516584 -0.24077678 0.21205263 0.19908805
000220 ab 0a 1c 3d 86 8e 51 be c7 ba 4a be 38 97 99 bd
       0.03809611 -0.20464525 -0.19797812 -0.07499546
000230 cf a3 27 3c 6c 1a 58 be 46 fb 2e 3e 36 f2 17 3e
       0.010231926 -0.21103829 0.1708804 0.1483849
000240 a0 2d 30 3e 0a 1a cc bd 00 d9 48 3e b7 ca 6c be
       0.17204905 -0.09965904 0.19614029 -0.23124205
000250 8e b6 8b bd d2 9e 03 3e 37 f9 f8 3b 7b b8 65 be
       -0.06821929 0.12853554 0.007598068 -0.22433655
000260 7a 6f 4e 3e a5 7a dd 3d 0f 2a 40 be 20 cd 3b be
       0.20159712 0.10814408 -0.18766044 -0.18339968
000270 63 bc 07 bc 24 a8 4e 3e 19 4f 79 3e b2 eb 62 be
       -0.008284661 0.20181328 0.2434658 -0.22160223
000280 63 ae a9 bd 72 41 6e be 23 af 42 be ab 9b 06 3e
       -0.08285215 -0.23267153 -0.19012122 0.1314532
000290 ca ae 3e be 8b a7 6a 3d bf 81 81 bb 88 ab 74 be
       -0.18621364 0.057288688 -0.0039522345 -0.23893559
0002a0 29 80 15 be 42 ad 58 3d d8 01 a3 3d 5c 77 c9 3c
       -0.1459967 0.052899607 0.07959336 0.024593048
0002b0 16 51 e1 3d a7 61 40 3e 79 d0 13 3e a3 4a 50 be
       0.11001794 0.18787251 0.14434995 -0.20340972
0002c0 30 af fa bd cb d7 ec bd 4f d5 93 3d 25 05 c9 bc
       -0.122404456 -0.11564597 0.0721842 -0.024538586
0002d0 a4 71 6c be 78 21 80 3e b1 cf 25 be d0 b9 cd bd
       -0.23090225 0.25025535 -0.16192509 -0.100452065
0002e0 ff 85 14 3d 67 58 1c 3e 17 9b 24 bd c4 b6 f1 3d
       0.0362606 0.15268098 -0.040186968 0.11802438
0002f0 4c b0 6b bc a7 85 d0 3c 11 1f f0 bb 16 22 d7 3d
       -0.014385294 0.025454355 -0.007327922 0.10504548
000300 b5 9c 4d 3e eb d7 19 3e d9 b3 0f be d8 ca f8 bd
       0.2007931 0.15023772 -0.1403345 -0.121480644
000310 05 98 56 3e 06 3f 95 bc 98 ba 10 bc 83 f9 df bd
       0.20956428 -0.018218528 -0.00883355 -0.109362625
000320 38 fc 63 be 06 7c 40 3e f7 2e 10 be 75 49 0b be
       -0.22264183 0.18797311 -0.14080416 -0.1360224
000330 c2 24 c6 bd 96 8b e0 bd 69 5d c8 3d 6f 81 57 3e
       -0.0967498 -0.10964124 0.097834416 0.21045469
000340 78 d0 dd 3d 49 66 4f 3e ad f2 99 bd 3f 43 a5 3b
       0.10830778 0.20253862 -0.0751699 0.0050434167
000350 fc 56 16 3e 94 73 05 3e 8d 2f a7 3d 8a 5e 55 3c
       0.1468162 0.13032371 0.081633665 0.013023028
000360 9d a3 a3 bd 66 32 9b bd 9c 14 61 3e 6d 4f 01 3e
       -0.07990191 -0.07577972 0.21980518 0.12627955
000370 70 b8 23 3e 73 a6 b0 3c f3 73 19 3e 15 43 b9 3c
       0.15988326 0.021563744 0.14985637 0.022614995
000380 62 01 1c 3d 92 89 2b 3e 3c d3 15 3e 84 39 fd 3c
       0.038087256 0.16751698 0.14631361 0.030911215
000390 f8 08 41 3e a2 8d 73 3e a3 e8 c5 3d f3 3e 6e be
       0.18851078 0.23784497 0.096635126 -0.232662
0003a0 cd 43 71 3e fa f1 c6 bd cc 97 56 3e 86 78 67 be
       0.2356102 -0.09714122 0.20956343 -0.2260457
0003b0 85 3a 2a 3e 08 31 38 bc ca 47 52 3e 9a 20 02 3e
       0.16623886 -0.011242159 0.20535198 0.12707749
0003c0 bb c8 32 be 7a c6 35 3d 40 01 75 3e 66 01 78 be
       -0.17459385 0.044378735 0.23926258 -0.24219283
0003d0 eb 5f 02 be 26 61 de 3d a3 e4 7d be 83 ed 12 3e
       -0.12731902 0.10858373 -0.24794249 0.14348416
0003e0 0c d5 2e be ca 0b a5 3d 89 7b 03 3e 1d 3c 51 3e
       -0.17073458 0.08058889 0.12840094 0.20433088
0003f0 d9 e0 28 be a8 75 69 3e fe 7d a0 bd 76 6d a0 bd
       -0.16492023 0.22798789 -0.07836531 -0.07833378

concat_embedder.code_emb.convs.1.bias f4 [48]
000000 5e dc 3c b9 b6 ce 35 3a 92 f8 c4 b8 bb 47 34 39
       -0.0001801117 0.00069354044 -9.392308e-05 0.0001719286
000010 6c 86 73 b9 e7 21 b2 b8 d2 72 04 3a 07 77 4a b9
       -0.00023224362 -8.494016e-05 0.000505251 -0.00019308562
000020 1b 53 a2 39 17 7a 9b b9 40 54 dd 35 43 e6 81 b9
       0.00030960966 -0.00029654868 1.6490303e-06 -0.00024776356
000030 2d 1f 7c 38 b4 2f f0 38 ac 88 1b b9 e1 09 0c ba
       6.0110517e-05 0.00011452977 -0.00014832866 -0.0005342048
000040 bd 11 ad 37 98 b9 c5 b7 9e 4c dd 38 7b 29 de 38
       2.0631467e-05 -2.3570654e-05 0.00010552372 0.00010593511
000050 a3 f4 8e 39 78 69 fa b8 b1 ff 38 38 22 e7 b8 39
       0.0002726662 -0.00011940574 4.410715e-05 0.00035267422
000060 66 58 cf b9 92 8e 1f 3a 86 48 9a b9 51 c1 45 b9
       -0.0003954798 0.0006086613 -0.00029427203 -0.000188594
000070 5e aa 14 b8 be 97 c8 36 47 d6 d1 38 de d8 a0 38
       -3.5444617e-05 5.9781296e-06 0.00010005809 7.669789e-05
000080 86 3e a9 b9 40 ba 18 ba b7 ab 30 3a 9b 39 48 b9
       -0.00032280775 -0.0005826093 0.00067394547 -0.00019094946
000090 28 ef 2d b9 82 a1 42 ba b6 62 bc b9 e6 cb 0c ba
       -0.00016587658 -0.0007424579 -0.000359317 -0.00053709594
0000a0 f3 5a b2 b9 8b 9b e2 b9 2d bf b7 b9 4e 8d 15 ba
       -0.00034018568 -0.00043221968 -0.00035046917 -0.0005704955
0000b0 f1 ec 08 ba 28 f8 4b 39 54 10 bd 38 80 da c9 b8
       -0.00052232953 0.00019452034 9.015264e-05 -9.625126e-05

concat_embedder.code_emb.convs.1.lin.weight f4 [48, 64]
000000 09 39 d6 bd 79 a6 33 be 96 3b fe bd 70 22 63 be
       -0.10460097 -0.17543973 -0.12413709 -0.22181106
000010 6b c9 ae 3d 3f f2 56 be 71 50 d2 3d 3e 4d 40 be
       0.08534511 -0.20990847 0.10269249 -0.18779466
000020 b3 59 c6 3d 1c 4f 26 3e 6a c2 4a 3d 9e 0f 2a be
       0.096850775 0.16241115 0.049501814 -0.1660752
000030 2e 3f 3c bd d6 e5 93 bc a4 99 0c bd a4 f7 41 be
       -0.04595869 -0.01805393 -0.03432621 -0.18942124
000040 c5 35 35 bd f4 7b 9d bd 62 cf d6 bd 21 95 16 bd
       -0.04424073 -0.07689658 -0.10488774 -0.036763314
000050 a4 02 10 3e 93 f3 c8 bc 32 ab 61 bd 34 2b 0f 3e
       0.14063507 -0.024530208 -0.055094905 0.13981324
000060 36 28 2b 3e 4e 7f f5 bc 9f 4a e4 3d a7 ca 9e bc
       0.16714558 -0.02996793 0.11147045 -0.019383742
000070 eb ca 54 be 1b 0a 36 be 70 f2 79 3d 6b 99 7a bd
       -0.20780532 -0.17777292 0.061022222 -0.061181467
000080 bd 05 01 3d 38 e2 f5 bd 32 15 02 3e a3 0a ea 3b
       0.031499613 -0.120060384 0.12703398 0.0071423813
000090 ee 24 45 be 8a 12 6a be 09 93 88 bd 3e fc 92 bd
       -0.19252369 -0.22858635 -0.0666867 -0.07177018
0000a0 2e c6 4f be 1c c6 e6 3d eb 3e 20 3e a7 ac 03 3e
       -0.20290443 0.11268255 0.15649001 0.1285883
0000b0 59 17 fe 3c d0 22 0d bd a9 3f 5a be 85 14 18 3d
       0.031016992 -0.034457028 -0.21313347 0.037128944
0000c0 cd 64 4a 3e 44 81 85 3d ce b6 5c 3e 21 33 82 bd
       0.19765015 0.06518796 0.2155411 -0.06357408
0000d0 20 3c 56 be 68 ba c4 3d 67 1b 10 be db 83 ea 3d
       -0.20921373 0.09605867 -0.14072953 0.11450931
0000e0 be 6b 52 3e 61 cd 1f be 6d ff 06 be bc eb 63 3e
       0.20548913 -0.1560569 -0.13183375 0.22257894
0000f0 16 fd 4f be 9d 69 8e 3d 24 a1 db 3d 08 07 60 bd
       -0.20311388 0.06953738 0.107240945 -0.054694206
000100 1b 5d 33 bd 84 48 62 be 51 0e 2f be 7d 10 35 3e
       -0.043789964 -0.22097975 -0.17095305 0.17682071
000110 84 84 13 3e b1 24 51 3e 2e b8 11 bc dd 3d fe bd
       0.1440602 0.20424153 -0.0088940095 -0.12414143
000120 4f 2f fc ba 44 5d dd 3d 51 96 44 be c8 77 26 be
       -0.0019240173 0.10808805 -0.19197966 -0.1625663
000130 99 ec 39 3e d4 fe ba bd 7e 59 ef 3d 9a a2 3c be
       0.18156661 -0.09130636 0.11686991 -0.18421403
000140 08 5c 0c be 29 b6 44 be 45 70 02 bb 80 1f 5d be
       -0.13706982 -0.19210114 -0.0019903344 -0.21594048
000150 0e 66 4a be 1a 6f 2c 3e b5 5b f8 3d 81 3f b6 3d
       -0.19765493 0.16839257 0.12126867 0.08898831
000160 70 40 01 be b4 99 38 bd 66 58 f1 3d c1 25 1a 3e
       -0.12622237 -0.045068458 0.11784439 0.15053464
000170 01 b2 38 be 0c fc 9a 3d 4a ae a9 3d 05 43 6c be
       -0.18036653 0.075676054 0.08285196 -0.23072441
000180 be 47 41 be 10 89 46 3e 17 3f 69 be 2d a3 0a 3e
       -0.18875024 0.19388223 -0.22777973 0.13538809
000190 f1 87 45 be 8b 60 2a 3e 23 67 e9 3d 76 3f 2b 3e
       -0.19290139 0.1663839 0.11396625 0.16723427
0001a0 6d 26 18 3e 57 44 49 be c6 da 7a bd bd d7 53 3d
       0.14858408 -0.19654976 -0.061243795 0.051719416
0001b0 9c ea 5f 3e 48 5b 10 3b 41 cb ff bc 31 89 27 3c
       0.2186684 0.0022027064 -0.031224849 0.01022558
0001c0 2a 98 4a be 1b 19 56 be e2 4c 5f 3d 90 28 2c be
       -0.19784608 -0.20908014 0.05451668 -0.16812348
0001d0 9a e6 3e be 7c 27 2f be 7b be 47 bd a5 24 50 3e
       -0.18642655 -0.17104906 -0.04876564 0.20326479
0001e0 69 69 b7 3d b7 43 46 3e d9 38 64 3a 42 17 e9 bd
       0.08955652 0.19361769 0.0008705981 -0.11381389
0001f0 1f 2d 32 3d 86 f9 b7 3c ca 12 3c bd ff fb 27 3d
       0.043500062 0.02245785 -0.045916356 0.041011807
000200 4e 4c ed 3d fa 8d 2d be e3 d4 37 3e 85 73 df bd
       0.115868196 -0.16948691 0.17952304 -0.109107055
000210 b4 b1 7d 3d c1 6b e8 bd 78 c6 a7 3d 57 20 b7 3d
       0.06193705 -0.113486774 0.08192152 0.08941715
000220 ca bb 97 3d 50 1c 4a 3d 1a 7e 62 be 75 d9 56 3d
       0.07408865 0.049343407 -0.22118416 0.052453477
000230 95 e9 39 bd 7e 38 26 3e 5a d4 94 bd 5c e0 03 3d
       -0.045388777 0.16232488 -0.07267065 0.032196388
000240 7e dc 52 bd 05 c0 d6 bd b4 48 07 3e da b6 29 bd
       -0.05147981 -0.104858436 0.13211328 -0.041434146
000250 c1 cf 90 bd 2b a8 e6 3b 69 6d aa bc ce 51 f1 bd
       -0.07070876 0.00703909 -0.020804124 -0.11783181
000260 09 0b c6 bd 9a 6f 46 be fb d4 4b 3e 21 30 a4 3d
       -0.096700735 -0.1937851 0.19905464 0.08016992
000270 eb 95 2c be cf aa f3 3c 4d ef 4a 3e 7f a1 44 be
       -0.16854064 0.029744534 0.19817849 -0.19202231
000280 97 59 33 be 25 76 f8 3d 48 c0 14 be c1 81 38 3d
       -0.17514645 0.12131909 -0.14526474 0.045045618
000290 df f4 00 3e 3d 89 19 be a7 56 28 be e7 11 48 3e
       0.12593411 -0.14993758 -0.16439305 0.19538079
0002a0 82 02 a8 bc a4 92 43 3e 56 ef 28 3d 6b 1e f6 3c
       -0.020509008 0.19098908 0.041243874 0.030043801
0002b0 32 dc 7b bc 64 fe 62 3d c5 d3 bb bd a7 ee 04 3e
       -0.015372323 0.055418387 -0.09171251 0.12981664
0002c0 98 54 7b 3d a6 4e af bd ee 17 a6 bd 02 ea 99 bd
       0.06135997 -0.08559923 -0.08110033 -0.075153366
0002d0 b2 bd d7 bd b0 23 69 3e c7 62 d5 3d 70 72 66 3e
       -0.105342284 0.2276752 0.10419231 0.22504592
0002e0 c6 c0 8b 3d 49 51 b2 bd ce f1 4e 3e 03 01 ed 3c
       0.06823878 -0.0870691 0.20209429 0.028931146
0002f0 02 4e d1 bd fa 06 90 3c 30 99 7f 3c 68 50 2c 3e
       -0.10219957 0.017581452 0.015600488 0.16827548
000300 e7 38 a1 bd 2f 23 81 bd eb 46 34 3d b5 7a 85 3d
       -0.078721814 -0.06305539 0.044012945 0.06517545
000310 21 51 14 be e7 10 d5 3d cc 22 07 3d 31 92 da 3d
       -0.14484073 0.104036145 0.03299217 0.10672415
000320 dd d4 7f bd fb ee a9 bd f5 39 ec bd 97 7e ab 3d
       -0.06245886 -0.08297535 -0.11534492 0.083737545
000330 9c c2 9d 3d 7f 52 40 be 95 04 98 3d 46 b3 19 be
       0.077031344 -0.1878147 0.07422749 -0.15009794
000340 d9 ac 31 3e 08 23 2f be 01 37 5c 3e ac dd 45 3e
       0.17351092 -0.17103207 0.21505357 0.19322842
000350 04 db 20 3e 74 9f 3d be b7 50 14 be 78 51 44 3e
       0.15708548 -0.18517858 -0.14483915 0.19171703
000360 16 c0 19 be d2 50 3c 3e 2d 14 dd bd d7 2e df b9
       -0.15014681 0.18390206 -0.10794864 -0.00042568773
000370 65 ea 2a 3e 84 7b 60 be 4b 8a 6c be a5 a9 44 3e
       0.16690977 -0.21922117 -0.2309963 0.19205339
000380 e6 7d b3 3d a4 c5 01 3e 95 6b 0f be 08 b8 3a 3e
       0.087642476 0.1267305 -0.14005883 0.18234265
000390 72 4c e5 bd 9f f5 7a bc 8d ae 80 3d 42 79 15 be
       -0.111962214 -0.01531735 0.06283293 -0.14597037
0003a0 76 22 cc bd 3c cc 63 bc a3 23 39 3e cc aa cc 3d
       -0.099675104 -0.013903674 0.1808 0.099935144
0003b0 e1 37 82 bd c9 33 f8 bd a4 14 3c 3e 3d 4b 94 bd
       -0.06358314 -0.12119252 0.18367249 -0.07240913
0003c0 aa c9 65 3c 10 12 ac bc 68 80 14 be b3 ee 09 3e
       0.014025131 -0.021004707 -0.14502108 0.13469963
0003d0 dc 11 41 3e 7a df dc 3d df cd 55 be fb 1b ac 39
       0.18854469 0.10784812 -0.20879315 0.00032827244
0003e0 f5 df 3e 3e e9 0e f3 3d 43 6c 68 be 3f 82 25 be
       0.1864012 0.11868078 -0.22697549 -0.16162966
0003f0 a6 b8 6e 3d d3 28 2a 3e a3 1a 6b 3e fd 21 82 3d
       0.058281563 0.16617136 0.2295938 0.06354139
